CNN/best_model.pth (torch, 250155 bytes, 10 tensors)

conv1.weight f4 [6, 1, 5, 5]
000000 90 c0 10 be f3 9b 01 be 39 d9 3f be be a7 ea 3d
       -0.14135957 -0.12657146 -0.18735208 0.114577755
000010 5a da 9b 3e 98 08 8d be f7 01 a5 bd b8 13 ec 3d
       0.30440027 -0.2754562 -0.080570154 0.115271986
000020 6d 0c a6 3e 15 55 6d 3e 69 5d 98 3d d2 df 1b 3e
       0.32431355 0.23176987 0.074396916 0.152221
000030 52 a1 43 3e 64 7b 92 3e a3 64 0d 3e 36 72 19 3e
       0.19104508 0.28609765 0.13807921 0.14984974
000040 d9 d6 77 3e cc 56 90 3e 62 6c 89 3d 8e f7 47 3e
       0.24203052 0.2819122 0.067101255 0.19528028
000050 2e db 90 3e 4f f4 07 bd 45 83 43 3e a4 0f 05 be
       0.2829222 -0.033191975 0.19093044 -0.12994248
000060 db 04 ef 3d b5 f4 54 3d b5 50 a4 3d c1 c4 c9 3e
       0.11670848 0.051991183 0.08023206 0.39407924
000070 66 9a ad 3e 64 fe 67 3d 7b 8b 90 3e b3 99 4c bd
       0.3390686 0.05663909 0.28231415 -0.049951266
000080 c8 d3 c8 3d f9 14 ad 3e 2c 21 79 3e f7 dd 0f 3d
       0.09806019 0.33805063 0.2432906 0.03512379
000090 f4 29 14 be fe ec 13 3d ee 71 3c bc 93 7b 6e 3e
       -0.14469129 0.036114685 -0.011501772 0.23289327
0000a0 99 9d 11 3d 42 15 0d be 9e f2 8a be 02 73 77 be
       0.035550687 -0.1377764 -0.27138227 -0.24164966
0000b0 81 08 30 3d 67 06 8c be 54 da ba bd ad ae ac be
       0.04297686 -0.27348635 -0.09123674 -0.33727017
0000c0 14 b6 35 be 9a 15 1e be c3 de ee bd 70 8b d9 be
       -0.17745239 -0.15437928 -0.11663582 -0.42489195
0000d0 48 a4 ae be a7 64 84 be bf c9 c6 bd b4 b9 49 be
       -0.34109712 -0.25858042 -0.09706449 -0.19699746
0000e0 ad 84 b5 be 8e a4 a5 be db 83 e6 bb 6b f3 83 3d
       -0.35452786 -0.32352108 -0.0070347614 0.06442913
0000f0 ba fc b7 3e 75 f0 50 3e 7c 81 93 3e 01 2e c4 3c
       0.35935003 0.20404227 0.28809726 0.023947718
000100 05 94 f0 39 c1 6a c7 3e 54 97 d0 3e ca eb 24 3d
       0.0004588665 0.38948634 0.40740454 0.04026393
000110 1d b7 36 3d 75 0b 93 bc 0b 53 53 bc c9 ff 7c 3e
       0.044608224 -0.0179498 -0.012898217 0.2470695
000120 70 8f 78 3e d6 4a 53 3e a5 0c 76 3e 88 b6 62 be
       0.24273467 0.20634016 0.24028261 -0.22139943
000130 32 c4 41 3e 28 19 a5 3e ff 46 98 3e aa 0d 45 3e
       0.18922499 0.32245755 0.29741666 0.19243494
000140 c1 22 e5 bd 14 7d c9 bc 37 2c 8a 3e 5d 8a d4 3e
       -0.111882694 -0.024595775 0.26986858 0.41511813
000150 bc 6a 07 3d f1 16 1c be 1d a9 d9 3c b8 42 8c 3e
       0.033060774 -0.15243126 0.026569897 0.27394652
000160 94 4b ec 3d 12 4c 1e 3e ce dd 85 be d5 96 ae 3b
       0.11537853 0.15458706 -0.26145786 0.005328039
000170 53 b2 89 3e 50 84 55 3d 30 8b 03 be 29 3c 23 be
       0.26893863 0.052128136 -0.12846065 -0.15940918
000180 e8 51 f0 3b 33 5c ca bc 72 e7 41 3e 31 14 f4 bd
       0.0073339827 -0.024702167 0.18935946 -0.11917914
000190 1e 4a b7 bd f4 5e 4c 3d 00 a6 88 3e ec 10 a5 bd
       -0.089496836 0.04989524 0.26689148 -0.08059868
0001a0 c5 e1 ad bc 60 8e 14 3e 1d fb 21 3c ba 33 8d 3e
       -0.02122582 0.14507437 0.00988653 0.27578527
0001b0 04 4f d0 3d 6e f0 e9 3d fc 14 0e bd 2f f0 3c 3e
       0.10171321 0.114228114 -0.03468798 0.18450998
0001c0 ae 5f 79 3e df 1f 2a 3e df b8 c4 3c f6 e4 45 be
       0.24352905 0.1661372 0.024013935 -0.19325623
0001d0 ef 7d 86 3c e2 43 51 3e 0b bf 31 3e 76 09 1b 3e
       0.016417472 0.20436051 0.17358033 0.15140328
0001e0 dd 53 1e 3e bd 76 87 3e ab 50 3a 3d b8 69 43 3e
       0.15461679 0.26457778 0.045487087 0.19083297
0001f0 31 c8 22 3e 71 a0 04 3c 87 7c cb ba 91 ea 72 3c
       0.1589668 0.008094893 -0.0015524783 0.014826433
000200 fa 28 8e 3e e2 bd 5d 3e 10 da 28 3d c6 77 24 3e
       0.27765638 0.21654466 0.041223586 0.16061315
000210 f8 45 ab 3e 1e c9 e0 3c 6a b1 eb 3d a8 b3 96 3e
       0.3345182 0.02743965 0.115084484 0.29433942
000220 db b4 ba 3b 04 5c 53 3d a1 55 3f 3e af 91 fe 3d
       0.005697829 0.051601425 0.18685009 0.12430131
000230 92 30 be be 38 7b b2 be 57 83 cc 3d 65 5f 26 bd
       -0.3714643 -0.34859633 0.099859886 -0.04061832
000240 0d 8a ad 3e a8 8a b0 be ea 8f b9 bd b8 31 8d 3d
       0.33894387 -0.34480786 -0.090606526 0.06894249
000250 6e 13 86 bc 6f 3c 4a bd
       -0.016366687 -0.04937404

conv1.bias f4 [6]
000000 29 6a 18 bd 19 4d c0 3c 56 bd a4 3d 34 91 91 bb
       -0.037210617 0.023474263 0.080439255 -0.0044423584
000010 c8 3b 49 3d 7d 56 07 bb
       0.049129277 -0.0020650916

conv2.weight f4 [16, 6, 5, 5]
000000 8b ba 81 3d c2 06 f0 b9 20 d4 40 bc e4 54 66 bd
       0.063344084 -0.00045781402 -0.011769325 -0.0562333
000010 c6 61 57 3d 63 4d 62 3d 04 73 32 bd df 36 35 3d
       0.05258348 0.055249583 -0.04356672 0.044241782
000020 85 b3 6e 3d af 68 ea bc 49 55 8e bd 38 30 81 3d
       0.058276672 -0.02861437 -0.069498606 0.06308025
000030 9f 41 96 3d e6 9d 0a 3d 39 e5 27 bd c9 c3 94 bd
       0.07336735 0.03384199 -0.040990088 -0.072639056
000040 7b 84 4a 3d 4d 0c 58 bd be 9b a8 3c 1c 50 28 bd
       0.04944275 -0.052746106 0.020582076 -0.041092023
000050 a5 17 dc 3b 12 40 47 bc ef c3 b5 3c 99 88 0a bd
       0.006716686 -0.012161272 0.022188155 -0.033821676
000060 4f 68 a2 3c ff c9 2f 3d 57 fa 04 bd a9 70 36 3d
       0.019825129 0.042917248 -0.032465305 0.044541035
000070 3e e5 01 bd 58 09 46 bd 91 5a a2 bd 2e 66 eb 3c
       -0.031712763 -0.048348755 -0.079274304 0.028735247
000080 e7 53 9e bd f7 3e 94 bd f0 0d 1f bd b8 3b d9 3c
       -0.07730847 -0.07238572 -0.03883165 0.026517734
000090 9a c1 d7 3c b7 a6 95 bd 31 98 05 3d be 87 6d bd
       0.026337434 -0.07307189 0.032615844 -0.057990782
0000a0 00 48 c4 3c 2b cd b1 bc ee 17 4e 3d cd ae e0 3c
       0.023960114 -0.021704277 0.05031579 0.027427102
0000b0 a8 59 9a bd 83 c9 ae 3b e3 74 26 3c 52 08 11 3d
       -0.07536632 0.0053340807 0.010159704 0.035408325
0000c0 35 46 9d bd cf ec d5 3c 2c 41 4c bd e9 93 65 3c
       -0.076794066 0.026113896 -0.04986684 0.014012315
0000d0 3d 65 7b b9 70 fa 84 bd f5 ba 9e 3c 97 db a0 bd
       -0.0002397494 -0.0649308 0.019376257 -0.078543834
0000e0 30 e9 7e 3d cc 0a 9e bd c1 b2 d5 3c 20 58 35 bd
       0.062234104 -0.07716903 0.026086213 -0.044273496
0000f0 67 40 b8 bd c5 5d 79 3b 45 25 2c 3c 02 bb 46 bd
       -0.08996659 0.0038050276 0.010506933 -0.04851819
000100 53 67 d8 3c 23 a2 57 bd 2e 3b 84 3c e9 9a 36 bd
       0.026416456 -0.05264486 0.0161415 -0.044581328
000110 c9 1b af bd c3 26 15 bd 7d e5 9c bd 49 d6 f2 3c
       -0.085502215 -0.03641392 -0.07660959 0.029643195
000120 11 dc cf ba f3 69 39 bd fa 7b aa 3c 84 70 ae bc
       -0.0015858432 -0.045267057 0.02081107 -0.021293886
000130 c2 ef fe 3c 56 b9 11 3d 4e cd 78 bb 4b 55 0f 3d
       0.031120185 0.03557714 -0.0037964168 0.03499345
000140 78 f2 68 bd 7e c5 f9 bc 10 5c 24 3d 7e ff a8 bb
       -0.05687186 -0.03048968 0.04012686 -0.00515741
000150 ac d4 14 bc 41 cd 6c 3d 5f b5 7b bd b3 2e a7 bd
       -0.009083908 0.057812933 -0.061452266 -0.08163204
000160 66 96 36 bd 32 d1 51 bd de 08 4a bd df 9f 93 3b
       -0.044577025 -0.051224895 -0.049324863 0.004505142
000170 bc 82 90 bd 08 cd 2e 3d 12 5a 26 3d 01 a9 9e 3d
       -0.070561856 0.042676 0.04061324 0.07747079
000180 be db 12 bd 7b 81 21 3d 05 3e 14 bd 37 c8 71 3d
       -0.035854094 0.039430123 -0.03619196 0.05902883
000190 1f 51 9e bd eb 6f 7f bd f1 c3 99 bd 34 6d 00 bc
       -0.07730316 -0.062362593 -0.07508076 -0.007838536
0001a0 9f 5b a0 bd 40 09 c1 bc 9d 4c f6 bb ab 42 aa bb
       -0.07829975 -0.023563981 -0.0075164572 -0.0051959357
0001b0 89 ab a2 ba 19 2e b1 bd ca 80 fc 3c 0a 77 54 bd
       -0.0012410741 -0.086513706 0.03082313 -0.051871337
0001c0 cc 3d 64 3d c8 f6 07 bd 8c a5 09 3d 0a 4d 95 bd
       0.055722997 -0.033194333 0.033605143 -0.07290085
0001d0 c2 00 a4 bd 47 d4 86 bd 31 fc e9 3c c2 8a 18 bd
       -0.08007957 -0.065834574 0.028562637 -0.037241705
0001e0 e9 74 fb 38 9a 14 4a bd c0 fe 81 bd 0a 3b 83 bd
       0.00011990389 -0.049336053 -0.06347418 -0.06407745
0001f0 af 90 98 bd cb 0c a3 3c 44 22 15 3d ab 97 a6 bd
       -0.07449471 0.019903561 0.03640963 -0.08134397
000200 c0 7e 71 bd 86 3c e5 bc 01 81 e5 bc f0 04 76 bd
       -0.05895877 -0.027982961 -0.028015615 -0.060063303
000210 4b 92 97 bd 85 80 29 bd 1e 53 2d bd b8 a6 86 bd
       -0.0740095 -0.04138233 -0.042315595 -0.06574768
000220 0e bf b0 bd 34 3a b4 bc 87 35 00 bd 03 07 6a bd
       -0.08630191 -0.02200041 -0.031301048 -0.057135593
000230 86 f8 91 3d 16 92 3e bd 90 49 cb 3c a1 7d 14 bd
       0.0712748 -0.046526037 0.02481535 -0.03625262
000240 8d 12 01 bd 2b 2d 12 3d e6 93 49 bd 65 1c 31 3d
       -0.031511832 0.035687607 -0.049213313 0.04323997
000250 b0 31 cd bc a4 42 d9 bb a7 d5 62 bd aa f3 31 bd
       -0.025048107 -0.0066302586 -0.055379536 -0.043445267
000260 c5 ee 23 3d 1e 19 14 3e 12 78 1f 3e 14 1b 68 bc
       0.04002263 0.14462706 0.15573147 -0.014166612
000270 da 45 0c 3d 92 e8 23 3e 18 24 51 3d 0c fe 76 bc
       0.034246303 0.16006687 0.051059812 -0.015075218
000280 ca 79 21 bd 4a 45 56 3d 8c 62 a6 bd 61 af 5b bd
       -0.039422788 0.052312173 -0.08124265 -0.05363405
000290 d2 ac 15 3e 51 07 73 3d 22 e9 c2 bd cc 63 d5 bd
       0.14616707 0.05933315 -0.09517123 -0.10419425
0002a0 b7 14 a0 bd 4e 5c 34 3e 3d 37 8f bd ba 76 9a bd
       -0.07816451 0.17613336 -0.06992958 -0.075421765
0002b0 00 75 83 3c 75 76 76 bd 96 7f 15 bc 90 13 bc bb
       0.016047 -0.060171563 -0.009124657 -0.0057396367
0002c0 57 f4 38 bd a9 5d 0d bd 84 41 10 3d eb 76 31 bd
       -0.045154896 -0.03451315 0.03521873 -0.0433263
0002d0 4e 7e 6e 3d b9 7d d8 bd 75 0c a8 3d 5e 0c 04 3e
       0.058225922 -0.10570855 0.08205501 0.12895343
0002e0 14 cd 1d 3e 0b 74 67 3e 0e fa 3d 3d a3 8d e5 3d
       0.15410262 0.2260286 0.04638105 0.11208656
0002f0 65 ff 04 3e 1a c9 e7 3c c5 c5 0d 3d 16 18 ca bd
       0.1298805 0.028294135 0.034612436 -0.09867875
000300 80 b1 20 be 8c 24 2a be 94 d1 ad 3d 26 0f b1 bd
       -0.15692711 -0.16615504 0.084872395 -0.086454675
000310 9e f9 b4 bd 6e 3d 3c be dd c4 90 bd 4f 5f 48 3e
       -0.08836673 -0.18382809 -0.07068799 0.19567607
000320 ac bd 8f 3d 66 20 79 3d fb 38 87 bc f5 fd 33 bd
       0.07018599 0.060821913 -0.016506663 -0.043943364
000330 6a 31 80 3d 61 e8 9f 3c c0 93 da 3d 43 23 1d 3e
       0.06259425 0.019519987 0.10672712 0.15345483
000340 11 35 e8 3d 5a f7 05 be a1 87 23 3d 4e 14 f9 3b
       0.113382466 -0.13082638 0.039924268 0.0076012975
000350 3c 65 3b bd 1d de 18 be d2 e6 2f be c4 19 32 3d
       -0.04575084 -0.1492848 -0.17177895 0.043481603
000360 95 57 00 be 30 67 35 be a2 e0 c1 bd 3b 2e 2c be
       -0.1253341 -0.17715144 -0.094666734 -0.1681451
000370 b0 22 09 3d 50 da 25 3e 12 4c 69 3d d0 4d 87 3c
       0.033480346 0.16196561 0.056957312 0.016516596
000380 1b c2 fc bd 45 63 a8 bd f4 a2 99 bd 5d ea 0c be
       -0.1234171 -0.08222059 -0.07501784 -0.13761277
000390 ab f6 08 be de 73 b7 bd 26 f1 12 bd df 19 e1 3c
       -0.13375346 -0.08957647 -0.03587451 0.027478157
0003a0 5a c1 c2 3c 50 f8 62 3d 3f e2 41 3e 07 95 24 3e
       0.023773838 0.05541259 0.18933962 0.16072474
0003b0 43 18 18 3e c6 2c 9f 3d ac 97 a0 3c f7 19 0e 3e
       0.14853005 0.07772212 0.019603573 0.13877092
0003c0 69 67 7a 3d 36 7f 18 3c a0 ab 76 be 57 e3 a0 bd
       0.061133776 0.009307673 -0.24088907 -0.07855862
0003d0 15 1f c2 3c af e2 81 3a 96 8e ff bd 55 58 a5 bd
       0.023696462 0.0009909476 -0.12478368 -0.080734886
0003e0 36 7d bd bd 0d 7a cb 3d 23 3e 30 bd ce 40 94 3d
       -0.09252398 0.09935389 -0.04302801 0.07238923
0003f0 e6 df cc 3d ca d7 46 bc ac 48 71 3c e4 e8 86 3d
       0.10003643 -0.012136409 0.014726799 0.06587389

conv2.bias f4 [16]
000000 a0 b1 a3 bc 04 e7 1c 3d af ab a8 bd 84 44 87 3b
       -0.01998216 0.03830625 -0.08235871 0.0041280407
000010 b0 a8 da bc 81 cf 51 3b a5 61 80 3d 2c 03 a7 3d
       -0.026691765 0.003201455 0.06268624 0.08154902
000020 27 34 8b bd e4 30 2e bd 14 49 8a bd 53 ce cb 3c
       -0.06797057 -0.042527094 -0.0675222 0.024878656
000030 2c 47 67 3b 52 f7 40 3d e2 29 a6 bb 15 41 62 3d
       0.0035290224 0.047110863 -0.005070911 0.05523785

fc1.weight f4 [120, 400]
000000 2a bd e8 bc 07 91 fe bc ea dc 1f bd 02 9b 12 bd
       -0.028410513 -0.031075014 -0.03902904 -0.03579236
000010 c7 a7 1b 3c ef 99 27 3d a6 ca 67 3c 45 d0 32 3d
       0.00950045 0.040918287 0.014147436 0.043655653
000020 13 36 51 3c 33 1b e2 3b b7 09 0f bd 06 7b 34 bd
       0.01276924 0.006900215 -0.034921374 -0.044062637
000030 9f 47 1c 3d 77 32 9d bc 70 73 b9 3c 56 d7 95 3c
       0.03815424 -0.019189103 0.022638053 0.018291157
000040 d5 ec f0 bc e2 89 24 bd ac d6 2e 3d 12 d4 3f b9
       -0.029409805 -0.040170558 0.042685196 -0.00018294182
000050 f2 66 15 bd a2 c6 03 bd 66 71 0e 3d 41 35 de 3c
       -0.03647513 -0.032171853 0.034776114 0.027125003
000060 01 ae 15 3d 95 75 07 3d c2 46 9c 3c 84 46 ad 3d
       0.036542896 0.03307112 0.019076709 0.084607154
000070 8d 29 44 3d cd 53 9b bd 0b 2e 16 3d bc 82 15 3d
       0.04789119 -0.07584343 0.036665004 0.03650163
000080 ec ba 18 3b ae 6e 9f 3c a6 a2 19 be c4 41 65 bc
       0.0023304773 0.019461956 -0.15003452 -0.0139927305
000090 f2 05 7c 3d 9e 69 81 bd 35 4b 3f 3d 53 4c f5 bc
       0.061529107 -0.06318973 0.046702582 -0.02994362
0000a0 9a 60 8b 3c e5 de 9b 3d 96 58 b6 3d 99 b0 2b 3b
       0.017013837 0.07610873 0.08903615 0.002619779
0000b0 6a 7e 63 3d 33 f7 c2 3b 84 9f aa 3c a7 1d 30 bd
       0.05554048 0.0059498786 0.020828016 -0.04299703
0000c0 5b 8a a3 bd 59 19 0c bd 7f 09 03 bd 22 e0 84 3d
       -0.079853736 -0.03420386 -0.031991478 0.064880624
0000d0 be 94 06 bc 34 11 95 3d 3b 88 4f bc 1c 79 59 bb
       -0.008214174 0.07278672 -0.012666757 -0.003318376
0000e0 da e2 c6 bc d1 4f 47 bd e5 a3 86 3d f1 16 09 3d
       -0.024278093 -0.048660103 0.06574229 0.033469144
0000f0 fb 07 24 bd 33 61 b3 3a 24 f8 b4 3b e0 84 19 3d
       -0.040046673 0.0013685584 0.0055227447 0.037480235
000100 f9 b4 f7 bc 80 8a 81 3d f2 d0 33 3d e0 3b 8f 3d
       -0.030237662 0.06325245 0.043900438 0.06993842
000110 9c 4e d2 bc 9a 4b 9d 3a f5 23 2e 3b 08 f3 8e 3c
       -0.02567225 0.001200068 0.0026571725 0.01744987
000120 e9 b7 04 3d fa e4 64 3c 64 5f 11 bd 64 d9 3c 3d
       0.032401953 0.013970608 -0.035491362 0.046105757
000130 55 a3 47 bc 97 c9 d0 bd f8 24 97 bd 3f 3f 9f bd
       -0.0121849375 -0.101947 -0.07380098 -0.07775735
000140 01 4d 78 3d e4 eb d4 bc 36 56 60 3d 7b d7 76 3c
       0.06062031 -0.025991388 0.054769717 0.015066023
000150 e6 86 15 bd 55 e4 82 3b 70 83 1c 3d 72 52 c3 bb
       -0.036505602 0.0039945045 0.038211286 -0.005960756
000160 9b b9 b1 3d 22 9e ad 3c dc 32 37 bc 12 5a 0f bd
       0.086779796 0.021193568 -0.011181559 -0.034998007
000170 38 43 dc bc c3 e9 7c 3a e4 22 4c 3d 43 bd 80 3d
       -0.026887521 0.00096478703 0.04983796 0.06286099
000180 57 96 f4 3c 2c c7 58 bd 2a 2d 63 bd a2 22 f6 bd
       0.029856844 -0.05292432 -0.055462994 -0.120183244
000190 28 36 a7 bb 10 fd a3 3c b9 b1 80 bc 31 d7 8e b9
       -0.0051028915 0.02001813 -0.015709745 -0.0002724468
0001a0 58 10 b3 3d e2 e5 7f 3d 00 15 54 3c 02 ff aa bc
       0.08743352 0.062475093 0.01294446 -0.02087355
0001b0 09 9e 33 3d 83 5f 32 3d e8 7c ae 3c 29 2e c7 3c
       0.043851886 0.04354812 0.021299794 0.024314003
0001c0 6e f0 eb bc f0 98 18 3d 1a 7d 7a 3d 8c 33 0b 3d
       -0.02880117 0.037255228 0.061154462 0.033984706
0001d0 65 1f 1a 3c f4 a6 82 bc 9d c0 9b 3a 8d 68 4d 3d
       0.009406899 -0.01594875 0.0011882965 0.050148536
0001e0 1f d7 8c 3c c4 f5 87 bb 98 ce 46 3d 40 56 da bb
       0.017192421 -0.0041491706 0.048536867 -0.006663114
0001f0 2c 9d 1a bd 21 13 70 3b 14 db 9b bc 5e 40 98 39
       -0.037747547 0.0036632495 -0.019025363 0.00029039657
000200 fc 4b 95 bd 05 0a 74 bc ca 43 83 3d 25 7f 6b 3d
       -0.072898835 -0.014894967 0.06409414 0.0574943
000210 1b 79 db bc 86 4c 74 bc 02 9e bc 3c 6b dd 25 3d
       -0.026791146 -0.014910823 0.023024563 0.040494364
000220 6a a6 ba bc 95 a0 f1 bb db 47 b2 3d da 5b d0 3d
       -0.02278443 -0.007373879 0.087051116 0.10173769
000230 74 95 8d bc 56 29 12 bd 2f e1 45 3d e3 78 8c ba
       -0.017283179 -0.035683952 0.048310455 -0.0010717179
000240 39 6f 9a 3c f1 7e 87 3c 8a 68 ba 3c b0 2e e4 bc
       0.018851863 0.016540023 0.022754926 -0.027854294
000250 fd de 50 bd 7f 66 0b bd 2d 58 60 3d 88 72 1e bc
       -0.05099391 -0.034033295 0.05477159 -0.009670861
000260 a3 c2 c2 bc 1e e5 1f bd bf 70 c0 3a b8 a6 8d bd
       -0.02377445 -0.039036863 0.0014682038 -0.06916565
000270 36 bc c2 bc b0 73 8f bd 71 ab 09 3d d8 fe c1 3d
       -0.023771387 -0.070044875 0.033610765 0.09472436
000280 d1 ae f5 3c 00 80 19 bd 26 9a b6 bd a1 f4 f3 3d
       0.029990586 -0.037475586 -0.0891612 0.11911894
000290 7d 7d 4d 3d bc 0a d7 3d dd e1 6d 3d 70 dc ca 3c
       0.050168503 0.10500094 0.058076728 0.024763316
0002a0 43 fc 1b 3e c5 a6 18 3d 2f a2 7f bd d6 d0 32 bc
       0.15232949 0.03726842 -0.06241053 -0.010914048
0002b0 20 ca e4 3c fe 12 a7 bc 5b 4d c8 bd ca 5d 20 3d
       0.027928412 -0.020394798 -0.097803794 0.039151944
0002c0 c3 96 11 bc dd e6 8d bd e0 29 24 be 22 68 db bd
       -0.008886042 -0.06928799 -0.16031599 -0.10713221
0002d0 9d 1e 2b 3c 9d 9d be bc f5 4c c9 3d 5b 5a b2 3d
       0.0104443105 -0.023268515 0.098291315 0.0870864
0002e0 35 51 c1 bd 2a 38 5c 3d d8 0e cb bb 0c 26 12 3d
       -0.09439317 0.0537645 -0.006196838 0.035680816
0002f0 ba 03 71 bc 48 43 cf bd 6a 2d f6 3c 83 f4 41 3d
       -0.014710361 -0.10120255 0.030050952 0.047352325
000300 de 55 b4 bd 0e 66 1e bd 23 40 5f 3d c8 63 ce bd
       -0.0880544 -0.038671546 0.054504525 -0.100776255
000310 64 e2 be bd 4c fa fc bc 02 d5 ce bd 60 d0 b5 bd
       -0.09320524 -0.03088107 -0.10099222 -0.08877635
000320 1b 20 47 3d 20 7d d4 bc b4 37 fb ba 3d 48 28 bc
       0.048614603 -0.02593857 -0.0019166381 -0.010271129
000330 41 1f 4f 3c 01 2c 68 3d a8 6e c3 bd cc 04 8b bc
       0.012641729 0.05668259 -0.095425904 -0.01697006
000340 9a 9b 03 bd 28 15 9f 3d 71 c7 55 3d ba 46 ed bc
       -0.032130815 0.07767707 0.052192155 -0.02896439
000350 82 82 3a 3d 6c 49 7c 3d c7 b7 91 3d 83 6b 11 3b
       0.04553462 0.061593458 0.07115131 0.0022189326
000360 f4 ac 3f 3c 87 fa 61 3c c7 9b e5 bb 8d a7 b5 3c
       0.01169895 0.0137926405 -0.0070070955 0.022174621
000370 58 f5 2b bc 89 46 b4 bd 82 6c 91 bd 5e 5b 43 bc
       -0.010495506 -0.08802516 -0.07100774 -0.011923639
000380 6a 0f 2a 3d 93 23 86 3d ca 91 85 3c 46 14 76 3d
       0.041518606 0.06549754 0.01630487 0.060077928
000390 35 32 aa 3d db 97 97 bd 63 c7 ea 3a d3 c0 88 3b
       0.083103575 -0.07402011 0.0017912205 0.004173377
0003a0 01 4e d3 3c 5a d0 87 3d a9 03 9b 3c f4 95 d2 3c
       0.025794031 0.06631537 0.018922644 0.025706269
0003b0 71 c3 b6 bb 01 c0 ad 3d 74 aa d1 bb 37 74 ed bc
       -0.0055774976 0.084838875 -0.0063984934 -0.02898608
0003c0 1a e2 69 3d 4e da 90 3d 2b 08 8b 3d 5f dd cd bd
       0.057100393 0.07072888 0.06788667 -0.10051989
0003d0 1f 12 22 3d 7c e3 1b 3d c3 78 2e 3c ea 01 0b 3d
       0.039568063 0.038058743 0.010648909 0.033937372
0003e0 e9 79 10 bd 9d aa bc bc fc 0c 48 3d e2 6d 1c bd
       -0.035272513 -0.023030574 0.048840508 -0.03819073
0003f0 a4 5a 12 3d d5 2a 52 3a b6 47 4f bd 5f b0 c7 3c
       0.035730973 0.0008017247 -0.0506055 0.024376092

fc1.bias f4 [120]
000000 d7 6e b8 bc 79 a2 f6 3c 13 45 0d ba 1b 1c 68 bd
       -0.02251379 0.03010677 -0.0005389016 -0.05666743
000010 78 3f f3 bc 35 a5 0b 3d 55 d2 b8 3c 30 b5 c3 3b
       -0.02969335 0.0340931 0.022561232 0.005972527
000020 e8 23 0c 3d 7c 23 07 bd 58 7f ef bc 29 a8 c8 bb
       0.03421393 -0.032992825 -0.029235527 -0.006123562
000030 e7 b4 7c 3c eb 48 a3 3c 75 0c 0f 3b e1 44 a9 3c
       0.01542399 0.019932231 0.0021827493 0.020662727
000040 f2 f3 52 bd fc ad e3 3c f8 38 8e bc 27 e7 ee bc
       -0.051502176 0.027792923 -0.01736115 -0.029162956
000050 c3 de b8 3d f4 af 91 3c 15 91 2f bb 92 fe 04 3d
       0.090268634 0.017784096 -0.0026789356 0.03246934
000060 cf b5 11 bd ea 3a e1 bc 8f de 88 3c 0a b2 66 3c
       -0.035573777 -0.027493913 0.016707687 0.014080534
000070 a8 d5 85 bc 6a 7e 61 bd 96 b3 17 3d 82 e7 2d 3d
       -0.01633723 -0.0550522 0.0370365 0.04245711
000080 a8 43 d7 3b c2 61 2c bc 69 54 40 3c 7a fe 06 bc
       0.0065693446 -0.010521354 0.011738875 -0.008239383
000090 60 38 08 3c 1c ac 1b 3d 7c ed e8 3c 7a 0b 20 3d
       0.008314222 0.038005933 0.028433554 0.039073445
0000a0 6f fb b2 3d 63 37 e7 bc 9d 2e ee bc 59 1b 1e bd
       0.087393634 -0.028224653 -0.029074961 -0.0386003
0000b0 77 d0 79 3c 3c a6 b5 bc 64 07 7b bc d3 c1 68 3a
       0.015247456 -0.022173993 -0.015321586 0.000887898
0000c0 6a 66 0d ba cf c1 89 bd 4b 2f f9 bc 5a 04 9e 3d
       -0.0005393984 -0.06726419 -0.030418059 0.07715674
0000d0 f9 d1 0e 3d bf b8 26 bd df 73 27 3b f1 df b7 bc
       0.034868214 -0.04070353 0.0025551242 -0.02244565
0000e0 c6 cb 4b bd 37 b4 67 bd a1 27 7f 3d 62 29 12 3d
       -0.04975488 -0.05656835 0.062293652 0.035683997
0000f0 d0 9f 6a bc 8d fc 0e 3c 01 78 0c bc 0b 57 e4 3b
       -0.014320329 0.008727205 -0.008573533 0.006968384
000100 4d 1b 95 bc 2d 89 3e 3d c9 f3 5f 3d 91 8a 02 bd
       -0.018201495 0.04651754 0.05467585 -0.03187043
000110 72 fa 98 3c ad 8a 63 bb 9b 5c 25 bd 55 27 4f 3c
       0.01867411 -0.0034720108 -0.04037152 0.012643655
000120 a5 38 54 bd f4 28 a9 3c 84 78 94 3d 53 a9 13 bd
       -0.051811833 0.02064941 0.07249549 -0.036050152
000130 1c 27 1e bd fd 27 b7 3c c7 90 03 3d f2 23 6f bc
       -0.038611516 0.022357935 0.032120492 -0.014595972
000140 9f 19 22 3d 91 db 75 bd 14 81 e4 bc cb 2f af 3c
       0.039575215 -0.060023848 -0.02789358 0.021385094
000150 a4 77 b5 3b cf 16 57 bc b0 02 8d 3c e8 af 35 3d
       0.005537944 -0.013127997 0.017213196 0.04435721
000160 a4 5a 26 3b 15 1c 64 bd e5 be be 3a e1 35 09 bd
       0.0025383616 -0.055690844 0.0014552741 -0.03349865
000170 43 9a 98 3c 1c ab 55 bd 6d cd 52 3c 7c 80 85 3d
       0.018628245 -0.052165136 0.01286636 0.06518647
000180 20 81 18 3c 02 63 05 bd 5c 0c b0 bc d1 35 97 3c
       0.00930813 -0.032565124 -0.021490268 0.018458279
000190 7a 70 bd bc ea 2e 0b bd e6 b2 72 3d fa eb 96 3c
       -0.023124922 -0.033980288 0.059252642 0.01842307
0001a0 ed 51 76 3d d6 81 95 3d 4a 5f 23 bd fb 99 65 3c
       0.060136724 0.07300155 -0.039885797 0.014013763
0001b0 8d 05 2d bd 8a 2e 5e 3b 0d a1 57 bb aa 52 59 3d
       -0.04224162 0.003390225 -0.003290239 0.05305735
0001c0 28 ca b7 bc dd bd 2e 3d 3b dd 7c bd 22 db be bc
       -0.022435263 0.042661536 -0.06173442 -0.02329785
0001d0 86 e9 08 3d ea 49 99 3d 62 30 a9 bd 77 a0 44 bb
       0.03342583 0.07484801 -0.082611814 -0.003000287

fc2.weight f4 [84, 120]
000000 dd 71 f7 3d 47 4b 53 3e 8a 24 f8 bd 1e 4a 3f bd
       0.120822646 0.20634185 -0.12116344 -0.046701543
000010 cd a5 4f bd d9 c1 2b 3d cb 79 15 3d 08 e4 9d bc
       -0.05069523 0.041932914 0.036493104 -0.019273773
000020 93 91 d4 3c 41 fb ff bd 05 a1 37 bc 2e 39 8b 3c
       0.025948321 -0.12499095 -0.011207824 0.016995039
000030 82 9d 2b 3e 23 a1 23 3e 71 8a 8d 3d a2 b0 60 3d
       0.16759303 0.15979438 0.06911171 0.05485595
000040 df 27 ce 3c 73 7a 9b 3d 35 73 33 3e 83 bb 99 bd
       0.025165496 0.07591715 0.17524417 -0.07506468
000050 ad 1e 3f bd 42 f3 23 ba 63 ca 59 3d 25 f0 f1 3d
       -0.046660114 -0.0006254205 0.053171527 0.11813382
000060 a8 ce 82 bd 38 63 77 3d 4d 21 5f 3d 65 4f 56 3e
       -0.06387073 0.060397357 0.054475117 0.20928724
000070 be ad 30 3d 88 d7 62 bd fe 14 f4 3d af c3 48 be
       0.043134443 -0.055381328 0.119180664 -0.19605897
000080 bb 21 1d be 8f 32 72 bb 5a d7 21 bc 0c e7 79 3d
       -0.15344898 -0.0036956405 -0.009878004 0.06101136
000090 3c e6 8c 3d 61 9e 4b bd ae b2 2e bd fb ea 04 be
       0.06879851 -0.04971159 -0.04265087 -0.12980263
0000a0 3c 84 2b be 69 9e 92 bd 84 c6 0c bd 10 62 8d bd
       -0.16749662 -0.071591206 -0.034369007 -0.069034696
0000b0 04 57 ab bd 6c 27 71 be 3c f7 1b bc 06 65 0b be
       -0.08366206 -0.23550195 -0.0095193945 -0.13612756
0000c0 e5 1a 4a be ac e0 7e 3d 4e 5c f4 bb 0e b6 20 3d
       -0.19736822 0.062225983 -0.0074572926 0.03923612
0000d0 7b 81 5c bc 06 03 11 3e 71 f9 ef 3d 6e ff a2 bd
       -0.013458605 0.1416131 0.11717499 -0.079588756
0000e0 a1 5b 61 3d 9d a1 51 ba 40 92 13 be 8b 13 5d bd
       0.055019025 -0.00079967995 -0.14411259 -0.053973716
0000f0 26 4a 90 3d 9b b9 b5 bd e6 fe 22 bd 12 7f 8c bd
       0.07045393 -0.08873292 -0.03979387 -0.06860174
000100 de 6b a4 bd 05 03 c9 bd 0e be 2e 3d d0 59 b0 3d
       -0.080283865 -0.09815029 0.04266172 0.086108804
000110 f6 0b 23 bd a1 10 3c 3d 5a c0 2d bc e6 de 5e 3d
       -0.03980633 0.045914296 -0.010604942 0.05441179
000120 49 8d 91 3c e1 15 e2 3d b0 ee 1a 3d 92 b5 fe bd
       0.017767565 0.11039329 0.037825286 -0.124369755
000130 10 d5 45 3d b8 f1 34 3c 2f f7 b9 bd 31 b4 cd bc
       0.048298895 0.011043958 -0.0908035 -0.025110336
000140 b1 0d 37 3e b1 34 96 bd 24 54 c9 bd 3b ac c6 bc
       0.17876317 -0.07334269 -0.09830502 -0.024252048
000150 e2 36 8c bc ad 0d a2 bd 62 3f 45 bd 53 56 94 3d
       -0.017116014 -0.07912765 -0.04815615 0.072430275
000160 f9 2c 0a bc 97 52 1b bd 76 b6 ca 3d 4f ee 90 3d
       -0.008433574 -0.03792056 0.09898083 0.07076704
000170 0c d1 26 bd 4d 3b c5 bc 29 47 5c bc b8 ce 10 3e
       -0.040726706 -0.024076128 -0.0134447 0.14141357
000180 25 e2 1c bd 1b 4e d3 bd 75 38 f2 3c 9f 9b 86 3d
       -0.038301606 -0.10317632 0.029567936 0.06572651
000190 a4 58 50 3d 06 85 cf bc 36 18 2d 3d 0f 33 42 be
       0.050865784 -0.025331985 0.042259417 -0.1896479
0001a0 a1 d7 9f 3d 33 a5 a6 3d f1 0e 24 be 28 a3 f0 3d
       0.078048 0.08136978 -0.16021325 0.117498696
0001b0 b5 93 8e bc 68 9f 41 bd bd e4 9b 3d 1e 33 9a 3d
       -0.017404417 -0.047271162 0.07611988 0.07529281
0001c0 fc 34 97 bd e1 e5 be bc 16 ff 47 3d a2 38 8a 3d
       -0.07383153 -0.023302974 0.048827253 0.06749083
0001d0 07 02 0d be 7d bd 5b 3c 6b 1c ba bc e3 f8 83 bd
       -0.13770305 0.013411877 -0.022718629 -0.06443956
0001e0 6e 71 84 bd 5f c0 c3 3d 38 56 de 3d 98 3d 62 bd
       -0.064669475 0.09558176 0.10856289 -0.05523452
0001f0 de 08 c1 bd d2 9c e6 bd b8 1b 79 3d 42 c0 89 bc
       -0.094255194 -0.1126038 0.06081745 -0.016815308
000200 0f 4e ba 3c b8 51 3d 3d 73 bf 92 3d 52 5e 99 be
       0.0227423 0.04622051 0.07165422 -0.29954773
000210 12 47 f4 bc e7 77 26 3d e4 2d 72 bd 64 2f cc 3c
       -0.029819045 0.04064169 -0.059125796 0.024924941
000220 bb 0d aa 3d 37 d1 40 bd 8a 5f 84 bc 0d ae ac 3d
       0.083034 -0.047074523 -0.016158838 0.08431635
000230 2c ab 02 be 50 fe 1e 3d 68 2e 9e bd df 61 9b bd
       -0.1276061 0.03881675 -0.07723695 -0.07587027
000240 d4 a3 05 3d da db aa 3d d6 63 a2 bd be 98 a3 bc
       0.03262694 0.083427146 -0.079291984 -0.019970294
000250 09 db 44 bd 20 cb ba 3c 39 76 6b bc 73 c0 ad 3d
       -0.04806045 0.022801936 -0.014371448 0.084839724
000260 fb e0 8d 3d df 9e af 3d 7c a9 2d 3c bb 0a c6 bc
       0.06927677 0.08575224 0.01059949 -0.024175039
000270 c5 d3 e0 bc ff 0c 3f 3d a1 c4 b0 3c fb 4c fc 3d
       -0.02744473 0.046643253 0.021578135 0.1231937
000280 33 67 24 bd 69 db 91 3d 8c d1 d2 bb ed 3f 92 bc
       -0.04013748 0.07121927 -0.0064336713 -0.017852748
000290 85 f5 85 bc 2a d2 b2 3d 0e 40 0f 3d 31 a7 ad 3d
       -0.016352424 0.08731492 0.034973197 0.08479155
0002a0 7c e5 1d 3e 46 f1 41 3d 00 4f b4 3d 27 a7 b1 3d
       0.15419573 0.047349237 0.088041306 0.0867446
0002b0 13 24 54 3d 26 5e f8 3d 79 c2 38 3d c2 78 da 3c
       0.051792216 0.121273324 0.04510734 0.02666891
0002c0 87 75 a2 3d ee e9 02 3e 9e c1 34 3e 9e dc f4 bc
       0.07932573 0.1278455 0.17651984 -0.029890355
0002d0 94 1e b6 3d 1e be df 3d 4b 4d 98 3c 58 c3 2d 3c
       0.08892551 0.10924934 0.018591544 0.010605656
0002e0 a7 a2 03 3e fd 74 15 be 4b 11 6f bd 36 f9 32 3c
       0.12855016 -0.14595409 -0.0583661 0.010923674
0002f0 0a 6a b0 bd 3e 7c 54 3d 6e 54 19 bd 82 31 45 bd
       -0.08613975 0.0518763 -0.037434034 -0.048142917
000300 ce 7f d8 3d 4d 3b b4 3d e7 49 9b 3d 1a 68 b5 3d
       0.10571252 0.08800373 0.07582455 0.088577464
000310 fa f7 8b 3d c8 f9 6b 3c 56 d9 ac 3d c9 bb 19 bd
       0.06834407 0.014402814 0.08439891 -0.0375326
000320 dc 6c 5f bd d6 c2 78 3d f8 0a 10 bd c7 d4 b5 3d
       -0.054547176 0.060732685 -0.03516671 0.08878475
000330 0c 4a 41 bd c2 05 56 bd 85 c4 ec bc d1 f3 87 bd
       -0.047189757 -0.052251585 -0.028902302 -0.06638301
000340 fe 8d bb bd 96 51 6e bd 3a 11 51 3d a5 bf be bd
       -0.09157942 -0.058183275 0.05104182 -0.09313897
000350 2a 68 d1 bc 95 12 0b be f5 3f 50 3d 1c a4 08 bb
       -0.025562365 -0.13581307 0.050842244 -0.002084977
000360 fb a1 80 bd 85 92 80 bd 30 bc a9 bd 4e ea a9 3c
       -0.06280895 -0.062779464 -0.08287847 0.020741608
000370 ed 9f ba 3d cf 07 35 bc 4e 26 8f bd 2b b8 9a 3d
       0.09112535 -0.011049225 -0.06989728 0.075546585
000380 bc d2 42 3d 24 5c 08 be e9 c1 00 3e 78 32 4c 3c
       0.047564253 -0.13316399 0.12573971 0.012463205
000390 53 2f 31 bd 3d ca 1d bd 34 c7 0b bd 01 2a b7 3d
       -0.043258023 -0.038522948 -0.03412552 0.089435585
0003a0 98 3b 44 bd c3 0d 06 3e 48 5e d0 3b 3f 7f ed bc
       -0.047908396 0.13091187 0.0063588955 -0.02899134
0003b0 13 4f 1d 3d c4 06 2b bd 57 98 a7 3d 4f 45 98 bd
       0.03840549 -0.0417545 0.081833534 -0.074350946
0003c0 92 f8 a5 3d 93 b6 08 be a4 39 fa 3d 9b 2c 99 bd
       0.08104052 -0.13350897 0.12218025 -0.07479211
0003d0 60 d9 30 bd cc 5e 9a 3d fb ff 5c bd bc 1c 8e 3d
       -0.043176055 0.07537612 -0.05395506 0.069390744
0003e0 60 0d df 3d 23 a0 4d bd d6 44 8a 3c 9f 90 66 3d
       0.10891223 -0.050201546 0.016878527 0.056290265
0003f0 32 19 11 3d 32 4a 75 bd 79 31 36 3d 2b 5a 97 3c
       0.03542442 -0.05988521 0.044480775 0.018475613

fc2.bias f4 [84]
000000 9a 43 c4 3c 46 ec b5 bc fc c4 ea bc 22 ae cd bd
       0.023958016 -0.02220739 -0.028658383 -0.10042979
000010 39 c4 82 3d c6 1d d1 bd 47 41 0f bd 4f d0 fc 3c
       0.06385083 -0.10210757 -0.034974363 0.030861048
000020 f9 e2 91 3c cd a3 7f 3c 33 52 95 bd 8c 9a a9 3d
       0.017808424 0.015603018 -0.07291069 0.082814306
000030 36 1d d0 bb 48 c8 b5 bb f8 8f 89 bd 24 12 a3 3d
       -0.0063511385 -0.005547557 -0.06716913 0.079624444
000040 96 02 82 bd 71 45 8e 3d 64 4a f9 3c fd e4 81 3c
       -0.063481495 0.06946839 0.03043098 0.01585626
000050 ef 4d ed bd ae bd be bd d9 28 f0 3d 42 ff d6 3d
       -0.1158713 -0.09313522 0.11726541 0.10497905
000060 33 54 88 3d 50 18 6e 3d ac d6 9f bd 3e ce 0c 3d
       0.06656685 0.058128655 -0.07804617 0.034376375
000070 fc c6 b9 bd 60 99 ff 3b 44 d1 6d 3d 43 bb d9 bd
       -0.090711564 0.007800266 0.0580609 -0.106314205
000080 42 a2 5b 3d 33 47 a1 bd 9b 01 ea 3d cf 21 d4 bd
       0.053621538 -0.07874908 0.114260875 -0.10358011
000090 83 55 96 3c a2 9d 6d 3d 32 42 18 3d c7 4d 90 bd
       0.018351322 0.05801166 0.037172504 -0.07046085
0000a0 56 ab 53 3d b2 31 e7 bd df 92 67 bd 00 7d 76 3a
       0.05167707 -0.112887755 -0.05653655 0.0009402782
0000b0 4a b8 2b 3d 3d 1c 95 bd d6 69 ba 3d 9c 4e 85 bd
       0.0419238 -0.07280777 0.09102218 -0.06509134
0000c0 36 4e 6a bc 87 15 cd bc fd 4a eb bc a7 ca 24 3c
       -0.0143008735 -0.02503468 -0.02872228 0.010058082
0000d0 f1 ac ce bc fe c8 5b 3c 1a bf cd 3b de 7c 89 3d
       -0.02522895 0.0134146195 0.0062788846 0.0671327
0000e0 cc 0f 68 bd 4a c0 8f bd d3 9e 0b bd 9c e5 33 3d
       -0.05665569 -0.07019098 -0.034087013 0.043920144
0000f0 07 ba 44 3d b4 ec 4c bd e5 92 32 bb 7a 5e c1 3d
       0.048028972 -0.050030425 -0.00272482 0.09441848
000100 5e a1 d9 3d a6 af 0b 3c 77 cb bc bd 1f b9 2c bd
       0.106264815 0.008525765 -0.09218495 -0.042168733
000110 45 c2 77 bd 3f 62 90 bd 22 8e 44 3d 4e a7 bc 3d
       -0.060488004 -0.07049989 0.04798711 0.09211598
000120 27 cd d9 3c bc 27 fe 3d 9d 17 00 3e 6a ae 50 bd
       0.026587082 0.124099225 0.12509008 -0.050947584
000130 89 58 d7 3d 79 0c e8 bb 49 85 45 3c 8f b8 87 bd
       0.105149336 -0.007081565 0.012055703 -0.06626999
000140 39 e6 d5 3d f6 97 ba bd f2 b1 6a bd 6a c6 88 bd
       0.10444302 -0.091110155 -0.057298608 -0.066784695

fc3.weight f4 [10, 84]
000000 ac 43 e4 3c db 55 cb 3b c5 b2 c3 3d b4 5c e0 bd
       0.0278643 0.006205303 0.09555582 -0.10955182
000010 7e e4 03 be d7 06 20 bd 92 72 34 3b f1 c4 b6 3d
       -0.12880132 -0.039069023 0.002753411 0.08924282
000020 4f 2b 63 bd 61 ae 8b bd 8b 2f d8 bc 48 65 aa 3d
       -0.055461224 -0.068203695 -0.026389858 0.08320099
000030 cf cc bd bd 04 a7 30 be af fc 3a bd 1f ab 50 be
       -0.0926758 -0.17251211 -0.045651134 -0.20377778
000040 9e 6c 66 3c 3e 3e 11 3e 1c d5 c6 3d 6c 51 8f bd
       0.014063982 0.141839 0.09708616 -0.06997952
000050 7d 86 98 bd 62 e8 02 3d 30 f3 85 bd c7 80 b8 bc
       -0.074475266 0.0319599 -0.06540525 -0.022522343
000060 ab 52 0b 3e be 7c fe 3c 60 fa 15 be 11 5a 1b be
       0.13605754 0.031065341 -0.14646292 -0.15171076
000070 a9 01 ac 3d da 78 f5 bd 19 8e 49 be 97 8a 99 3d
       0.08398754 -0.11985941 -0.19683112 0.07497137
000080 ec 63 07 3e d9 e8 b7 bd 7d 41 80 bc b2 09 84 bd
       0.13221711 -0.08979959 -0.015656227 -0.06447162
000090 1d 15 76 3d 77 69 d0 3c 6a 32 db bd ba 1e 76 bd
       0.06007873 0.025440915 -0.10702975 -0.060087897
0000a0 d5 9f ab bd fe a1 a3 bc 19 ee 41 3d 5f 02 9f 3d
       -0.08380095 -0.019974705 0.04734621 0.07764124
0000b0 46 11 e6 3d 02 2a 8f 3d 46 5a 59 bd 05 9a 39 3c
       0.112337634 0.06990434 -0.053064607 0.011328225
0000c0 2f f1 a1 bd 57 2f c8 3c 76 57 28 bd a3 23 fc bc
       -0.0790733 0.024436636 -0.041099034 -0.030778712
0000d0 a8 58 ea bd 4f 32 d0 3d 93 cd 52 be 4c de 89 bd
       -0.11442691 0.101658456 -0.20586233 -0.06731853
0000e0 d2 c1 cf 3d 2b 3f c5 3c 62 12 e5 bd 31 f9 ff bd
       0.1014439 0.024077972 -0.11185147 -0.12498701
0000f0 22 c1 00 3e ed 2a 83 bd db b5 08 bd 9d e3 1f be
       0.12573674 -0.06404672 -0.033376556 -0.15614171
000100 e4 79 d3 ba 0e bd fd 3d 11 df c0 3d 31 35 cf 3c
       -0.0016134349 0.12389575 0.094175465 0.025293918
000110 ae 17 2e bc ad bb e6 bd 9c 22 36 bd d8 c3 8e 3d
       -0.010625763 -0.11266265 -0.0444666 0.06970948
000120 0a fc 9e 3d 01 35 30 3e 7a 3d cd bd 64 a1 87 bd
       0.077629164 0.1720772 -0.10021491 -0.0662258
000130 b9 a9 aa bb a0 a4 4e bc 6f 1f 18 be fe f8 b0 bd
       -0.005208221 -0.012612492 -0.14855741 -0.086412415
000140 05 96 41 bc 1b 6a b1 bd 04 84 dc 3d db ae d3 bb
       -0.011815553 -0.08662816 0.107673675 -0.0064600534
000150 94 a4 58 3e dc ae 8f bd 9c 1e 68 bd ef 33 2b bd
       0.21156532 -0.07015774 -0.056669816 -0.041797575
000160 37 8b 09 be ed 25 b7 bd e1 b4 21 3e 95 30 ae bd
       -0.13432012 -0.08942781 0.15791656 -0.0850536
000170 0f fe 45 be ee b1 2f 3d 2d b8 a0 be 73 7e d6 bd
       -0.19335197 0.042894296 -0.31390515 -0.10473337
000180 85 08 4d 3e 1e c6 8f 3c 45 37 3c 3e 27 88 bf 3d
       0.20022781 0.017550524 0.18380459 0.09352141
000190 46 a7 18 be 59 c9 e4 3d 08 b9 0c bd 43 42 53 3d
       -0.1490756 0.111712165 -0.034356147 0.051576864
0001a0 9c 2f 15 bd 2c 1b aa 3d 21 e8 ab 3d 0b a0 d5 bd
       -0.036422357 0.08305964 0.083938845 -0.104309164
0001b0 93 93 0c be bc 45 60 3c 1d 66 7d bd 2d 73 c1 3d
       -0.1372817 0.013688501 -0.06186496 0.09445796
0001c0 5e af 94 3c 4c 6c 3d be 98 98 b0 3d 6c e3 cf bd
       0.018150028 -0.18498343 0.08622855 -0.10150799
0001d0 26 8a 13 be f3 b5 82 3c 6b 7c 08 3e f1 ea 9e bc
       -0.14408168 0.0159559 0.13328712 -0.019399138
0001e0 7b 52 5f bd 0e cf 60 bc f3 d7 a8 bd 0f db 90 3d
       -0.05452202 -0.013721241 -0.08244314 0.07073032
0001f0 11 dd 8f 3b 13 78 9d 3d 6a c8 4e bd 00 e5 c3 3d
       0.004390367 0.07688918 -0.0504841 0.09565163
000200 4e 86 9a bb 20 25 56 bc 5e e3 46 be 00 22 a1 bd
       -0.0047157174 -0.013070375 -0.19422671 -0.07867813
000210 aa 19 8b bd ae ee 27 3d a2 93 bd bc ee a0 39 3d
       -0.067920044 0.040999107 -0.023141686 0.04531949
000220 c7 ed 9e 3b f3 77 28 be a6 2b e0 3d 62 9e 17 be
       0.0048501226 -0.16452007 0.10945825 -0.14806512
000230 48 24 51 bd 6b 63 6e bd 9e 8e 24 3d 80 4a 84 3d
       -0.05105999 -0.05820028 0.040175073 0.06459522
000240 71 20 b8 bc 70 6c cc bc f0 44 a6 bd 80 0a d2 bd
       -0.022476407 -0.02495405 -0.081186175 -0.10255909
000250 51 16 b4 bd 96 e0 a9 3c fa bb 64 3d 1a 31 2d 3e
       -0.08793319 0.020736974 0.05584333 0.16913262
000260 b6 77 02 bd 87 33 3a 3d a9 66 ce bd 93 e3 3d bd
       -0.031852446 0.045459297 -0.100781746 -0.04635961
000270 00 9c c1 3d 68 2b 40 3e d0 48 10 3e e2 80 05 bd
       0.09453583 0.18766558 0.14090276 -0.032593615
000280 bf c5 5a 3d 38 da 12 be aa c6 0c be 29 4d 99 3d
       0.05341124 -0.14341056 -0.1374766 0.0748542
000290 7f 1b 18 3e d9 d3 52 bd 89 90 2c 3e 8a 85 41 3d
       0.14854239 -0.051471565 0.16852011 0.047246493
0002a0 5a d3 09 be 26 a9 c4 3d d8 6d 02 3e 02 74 27 bd
       -0.1345953 0.09602575 0.12737215 -0.040882118
0002b0 41 5d 0c bd aa 25 5f be ce 03 16 3e 74 fa 30 3d
       -0.03426862 -0.21791711 0.14649889 0.0432076
0002c0 b3 10 10 3d d5 df 4e bd f6 49 97 3d 35 02 5f 3d
       0.035172176 -0.05050643 0.07387154 0.054445464
0002d0 5c cb 37 3d 2a d9 b3 3d a1 fd 96 3c f9 8c b7 bd
       0.044871673 0.08781655 0.018431487 -0.08962435
0002e0 ab 49 55 3c 2b 85 df 3d 81 8f c6 3d f4 b1 9c 3c
       0.013018052 0.10914072 0.0969534 0.019127823
0002f0 7a de 66 3d 69 54 62 bc 0a 6c 14 be 02 56 4e be
       0.056364514 -0.01381407 -0.14494339 -0.20149997
000300 82 9e c5 3d 70 e1 e4 3d e3 df 35 bd d0 fd d0 bd
       0.096493736 0.11175811 -0.04440297 -0.10204661
000310 26 79 36 3c ce 9c 2b be c0 69 0e 3d 78 84 ca bd
       0.0111372825 -0.16759035 0.03476882 -0.09888548
000320 2c 59 6c bd fb 26 fe b9 a3 89 ec 3d a1 ea 00 3b
       -0.05770223 -0.00048475698 0.115496896 0.00196711
000330 f9 0c 19 3e b3 6c 15 bc 38 08 25 3d 1b dd 52 3d
       0.14946355 -0.009120154 0.04029104 0.051480394
000340 66 70 44 bd 25 97 50 bc 88 7d c0 bd 28 16 d1 3c
       -0.047958754 -0.012731348 -0.09398943 0.02552326
000350 0c d5 39 bd 35 5d 6a 3d e7 e5 e8 bd 8d be 84 bd
       -0.045369193 0.057217795 -0.113719754 -0.06481657
000360 01 cf dc bd 4a aa 42 3d 24 ac 9c bd 3d f5 6e 3e
       -0.1078167 0.04752568 -0.07650021 0.23335738
000370 38 d1 af 3c 71 f3 6b bc 48 e9 d3 bd cd 54 af bc
       0.021462068 -0.014401303 -0.10347229 -0.02140274
000380 a7 3f 2c bd 5e b5 f2 3b de 2a e6 3d 22 81 e3 bc
       -0.04205289 0.0074068746 0.11238645 -0.027771536
000390 5b 58 67 bd cd 9c b7 3d 22 ac 2d 3d 44 55 5c be
       -0.056480747 0.08965454 0.042400487 -0.21516901
0003a0 fb 3f d3 3d 02 35 d8 3d e2 18 46 3d 0b 3c aa 3d
       0.10314938 0.105569854 0.048363574 0.083122335
0003b0 cd 06 d2 bd 21 90 07 3a ad 3b 20 3e 66 b3 0b bc
       -0.102552034 0.0005171318 0.15647765 -0.008526659
0003c0 cc 4e 96 bc b1 ed 7d 3d fa ab d6 bd 82 6a 50 3d
       -0.01834812 0.06199426 -0.10482021 0.050882824
0003d0 00 d0 f9 3d 63 02 b5 bd 7f 28 bd 3d 73 0f 3b 3b
       0.12197876 -0.08838346 0.0923624 0.0028543144
0003e0 92 41 7d 3d a1 e9 99 3d 70 fc 02 be 94 ce bf bd
       0.06183011 0.07515264 -0.1279161 -0.093655735
0003f0 6d 9c b3 bd 7c 36 28 3e 14 3f 0c be a1 30 81 bd
       -0.0877007 0.16427034 -0.13695937 -0.06308103

fc3.bias f4 [10]
000000 2b b7 b8 bd 2a 13 20 3e 6c 00 29 3d 19 18 0e be
       -0.090193115 0.1563231 0.041260168 -0.1387638
000010 23 fb c5 3c 80 a1 98 3d 0c 4e 89 3d 2a 0a 80 3d
       0.024167603 0.07452679 0.067043394 0.06251939
000020 34 bc 8d bd d9 42 8c 3d
       -0.069206625 0.06848688
