CNN/best_model.pth (torch, 250155 bytes, 10 tensors)

conv1.weight f4 [6, 1, 5, 5]
000000 30 51 cb 3c 39 ae 9c 3e d7 fa e4 3d 34 13 41 3e
       0.024818987 0.3060167 0.111806564 0.18854982
000010 d0 9a bf 3e ef f6 85 bc a6 ca a1 3e 6a 8f ec 3d
       0.374228 -0.016353099 0.3159992 0.115507916
000020 ff 0c ce 3e 51 f5 4d 3e ca ce 07 be 26 4c 6b 3d
       0.4024429 0.20113112 -0.13262478 0.057445668
000030 f3 4a f0 bc a2 6e 84 3e a6 95 a1 3d 33 36 38 bd
       -0.029332614 0.25865656 0.07889871 -0.044973563
000040 8b 0e 48 bd c9 03 14 3e 2e a0 25 3e d9 95 88 3e
       -0.048841994 0.14454569 0.16174385 0.26676825
000050 e2 34 ae be e9 ee 91 be ba 39 16 bd de c5 e1 3d
       -0.3402472 -0.28502586 -0.036676146 0.11024068
000060 d9 62 66 3e a1 d1 8a 3d 00 f2 3e 3e b3 76 c3 3e
       0.22498645 0.06778265 0.18647003 0.38176498
000070 7c 31 df 3d a9 d8 a4 3e 53 ab a0 3e 7e c4 b5 3e
       0.1089811 0.3219655 0.3138071 0.35501474
000080 d3 6f 39 3e 75 25 47 3e ab 2c 0b 3e a1 3b 34 be
       0.18109064 0.19447882 0.13591258 -0.17600872
000090 0b 46 8a be 9e 7d 88 3d ec 73 b9 bd e0 3b a2 3d
       -0.27006564 0.066645846 -0.090553135 0.079215765
0000a0 cf 14 f7 be 00 80 93 be a6 7a d2 be 7b d9 aa be
       -0.48258063 -0.28808594 -0.41109198 -0.3336905
0000b0 d5 a9 26 be 4d 3b ad 3d 22 be 3b be cb 1f c1 bb
       -0.16275723 0.08458576 -0.18334249 -0.0058936826
0000c0 d6 aa 06 bd f7 ad 13 3d 0b d0 c4 3e 45 46 04 3e
       -0.032877766 0.036054578 0.38439974 0.1291743
0000d0 84 ef b7 3e 70 2a 35 3e ea 07 ca 3d 3b af af 3e
       0.35924923 0.1769197 0.09864791 0.34313378
0000e0 a2 92 58 3e 3b ab 3e 3e be dc 1d 3e ec e5 e7 3d
       0.21149686 0.18620007 0.15416238 0.11323151
0000f0 10 ff 6d 3e 99 ee c5 3c 79 e7 27 3d a7 95 0f be
       0.2324183 0.024161624 0.040992234 -0.14021932
000100 b4 ff 28 3d 2c 7a cb bd 14 db 70 be 77 e2 b6 be
       0.041259483 -0.09935412 -0.23521072 -0.35719654
000110 a7 40 2a be 71 e4 93 be 1f 39 88 be a3 df d6 be
       -0.16626225 -0.28885224 -0.2660608 -0.41967496
000120 19 ad 82 be c9 94 83 bd 52 2f 0d 3d 8e 03 a0 3e
       -0.25522688 -0.06424863 0.034468956 0.31252712
000130 4c ef a1 3e 14 ac 65 3e e1 fb 91 3d 97 11 4e 3e
       0.31627882 0.22428924 0.0712812 0.20123897
000140 bf be 6c 3e 50 0e bc bc 96 0a 3d 3c 6d ce 06 3d
       0.23119639 -0.022956043 0.011538168 0.032911707
000150 7a c6 16 be b1 20 5c 3d 63 13 4a be fa 29 0a be
       -0.1472415 0.053742114 -0.19733958 -0.13492575
000160 e9 f2 2c be 11 a4 b0 be 63 51 3b be 57 1e 5b be
       -0.16889538 -0.34500173 -0.18292765 -0.21398292
000170 7b 59 8e be f5 12 bf be 99 01 00 be 15 b6 25 bb
       -0.27802643 -0.3731915 -0.1250061 -0.0025285531
000180 53 51 88 be fc 80 32 be 87 38 42 bd 0b ed 81 3e
       -0.26624545 -0.17432016 -0.04741719 0.25376162
000190 83 e4 d0 3d 23 cc 02 3e 1f 2e 92 bc c2 d3 b7 3d
       0.10199835 0.12773184 -0.017844258 0.089759365
0001a0 d1 ca 1e 3d 44 91 b8 bd 0f f9 04 bc eb 7b ed 3d
       0.03876764 -0.09012082 -0.008116021 0.11595901
0001b0 92 83 7b 3e a3 13 a1 3e d8 32 8b bd b5 a2 15 bd
       0.24561909 0.31460294 -0.06796807 -0.036532123
0001c0 c9 c5 46 3d 08 97 b7 3e 6f ec 1b 3e 93 f7 88 3e
       0.048528466 0.35857415 0.15226911 0.26751384
0001d0 d1 5e 12 3d 59 cc 8b 3e 34 fa 6c 3e e4 81 19 3e
       0.035734955 0.27304342 0.2314232 0.14990956
0001e0 3e 90 99 3e 28 60 26 bc e8 e1 98 bd e2 9b fb 3d
       0.2999286 -0.010154761 -0.07464963 0.12285592
0001f0 9f d8 82 3c 42 a1 45 3d f2 75 23 3d 81 33 57 3e
       0.015972434 0.04824949 0.039907403 0.21015741
000200 55 92 6e 3e c1 05 11 3d 9e 04 4e 3e e4 b3 d8 bc
       0.23298009 0.035405878 0.20118949 -0.026452966
000210 79 81 e4 b9 91 97 7c 3e fe b5 9b 3e 78 7a 6c 3e
       -0.00043584013 0.24667193 0.30412287 0.23093593
000220 78 96 52 3c db 90 7b bd fc 2a cb bd 5a ae 06 3e
       0.012853257 -0.06141744 -0.09920308 0.13152447
000230 21 6c 19 bd 0b c6 69 be 96 33 b4 bd 96 d1 ee bc
       -0.037456635 -0.22829454 -0.08798902 -0.029152673
000240 43 fa 87 3e 4d ad b5 be ac ac 66 be 3d 8d 3d be
       0.26558122 -0.3548378 -0.22526807 -0.1851091
000250 50 77 95 3e 4c d4 8b 3e
       0.2919259 0.27310407

conv1.bias f4 [6]
000000 87 17 a6 bd df 1c a4 3d 80 b0 68 3e 69 8c 81 3e
       -0.08109956 0.08013319 0.2272358 0.25302437
000010 53 b0 83 bb db d6 97 3c
       -0.004018822 0.018535068

conv2.weight f4 [16, 6, 5, 5]
000000 18 20 0e be 53 8d b5 bd 7d a6 51 bd 0f 32 3c bd
       -0.1387943 -0.08864846 -0.051184166 -0.045946177
000010 7e 9d 15 be dd 5f 75 bd e8 20 fe bd e6 26 a1 bd
       -0.1461086 -0.059905875 -0.1240862 -0.078687474
000020 23 f5 b0 bd c8 85 27 be 5e fa 1a be 73 85 b9 bd
       -0.08640506 -0.16359627 -0.1513457 -0.090586565
000030 d5 a1 13 3d c4 13 0b bd 0e b0 3b 3c e4 63 3c bd
       0.036043007 -0.033954397 0.011455549 -0.0459937
000040 ca 25 ed 3d 05 0a 2e 3e 84 e1 f1 3b 63 63 5e 3d
       0.11579473 0.1699601 0.00738162 0.054294
000050 b4 42 4f b9 b7 e8 d9 3d a0 17 0a 3e 7c fc 6f 3d
       -0.00019765907 0.1064009 0.13485575 0.058590397
000060 e4 8f 96 3d 1c 0a 97 3d c1 fc b9 bd 2d 56 2f bd
       0.07351664 0.07374975 -0.09081412 -0.042806793
000070 f1 f8 6d bd e9 be c9 3b 7c d3 9b bc 22 a8 9d bd
       -0.058098737 0.0061567915 -0.019021742 -0.076980844
000080 da 06 fb b9 02 e2 c4 bd 65 04 0a be ab e8 08 bc
       -0.00047879555 -0.0961342 -0.13478239 -0.008356254
000090 80 63 2b bd 57 3f fc bd 63 87 55 be 5c d9 8c bd
       -0.041842937 -0.123167686 -0.20852427 -0.068773955
0000a0 82 8c 87 3d 98 03 a3 bc 70 22 ad bd 6e 7e 18 3d
       0.066185966 -0.019899175 -0.08453834 0.037229948
0000b0 3f 90 ed 3d d1 b5 a8 3d ca a5 d2 3d 67 3b b4 bd
       0.115997784 0.08237804 0.10285528 -0.088003926
0000c0 7d 36 96 bd 0d 78 30 3d a7 11 ff 3d b1 98 13 3d
       -0.073346116 0.04308324 0.12454539 0.03603429
0000d0 05 cb db 3c 34 98 32 3d 87 d6 8e 3d db 17 ca 3c
       0.026830206 0.043602183 0.069745116 0.024669578
0000e0 2b 97 57 3d d4 2d 2f 3c c4 55 ee bd a9 63 38 be
       0.0526344 0.010692079 -0.11637452 -0.18006767
0000f0 69 b2 31 bd 46 9e 19 bd 06 dc ee bd 63 87 7b be
       -0.043383036 -0.037504457 -0.1166306 -0.24563365
000100 58 15 1f 3d 9d 75 c1 3d 2e 30 43 bd a6 77 98 bd
       0.038838714 0.09446261 -0.04765337 -0.07444696
000110 61 a0 86 bd ff e2 c9 3d bd d5 d8 3d 4e 27 93 bc
       -0.065735586 0.09857749 0.10587642 -0.017963078
000120 40 5b dc 3c d1 88 3a bc 41 4a 91 3d f5 60 62 3d
       0.02689898 -0.011385159 0.07094241 0.055268247
000130 61 a3 9b 3d 61 1e 49 3c 51 be 62 3d 58 30 cb 3d
       0.075995214 0.012275309 0.05535728 0.0992133
000140 ae fd d1 3d 10 1e de 3d 11 fc d5 3d e3 cc e7 3d
       0.10253464 0.10845578 0.104484685 0.11318376
000150 13 25 8c 3c 7c 40 ee 3d bf 41 53 bd ac 00 cb bd
       0.017107522 0.11633393 -0.051576372 -0.099122375
000160 01 3b e3 bd aa 26 b4 bd 52 b4 79 3d 12 e1 fe bb
       -0.110952385 -0.08796437 0.060962982 -0.0077782953
000170 44 27 bb bd 55 64 a6 3d f1 c3 85 3d cb ff 96 3c
       -0.09138349 0.081246056 0.065315135 0.018432518
000180 a4 78 97 3d f5 ff 58 bd a8 4c 9b 3d 92 d6 22 3d
       0.07396057 -0.052978475 0.075829804 0.03975541
000190 38 d5 15 be e8 b1 51 be 87 75 39 be 2f 54 29 bd
       -0.14632118 -0.20478022 -0.1811124 -0.04134005
0001a0 ff 47 8a bd 04 40 f8 bd 6f ed 39 be 93 8c df bd
       -0.067520134 -0.12121585 -0.1815698 -0.10915484
0001b0 11 9a 90 3c 88 fc 83 bd d3 70 54 bd 31 b1 33 bd
       0.01765159 -0.06444651 -0.05186541 -0.043870155
0001c0 f3 22 01 3e 6b 27 94 3c fe df f5 3c c0 9e 6f bd
       0.12610988 0.018085202 0.030014034 -0.058501005
0001d0 aa 8c e0 3d 43 9e 14 3e 65 08 fa 3d 6d 60 97 3c
       0.109643295 0.14513497 0.122086324 0.018478597
0001e0 9d 69 8a 3d 30 f0 1a 3e 53 37 be 3d e7 4a f4 3d
       0.067584254 0.15130687 0.09287896 0.11928349
0001f0 68 e0 19 bc 94 15 ab bc 75 a8 02 be ec 21 81 bd
       -0.0093918815 -0.020884313 -0.12759574 -0.06305298
000200 3c 0e 56 bd 3f 2c f1 bd 1e 4c 5f bd 41 7b 79 bd
       -0.05225967 -0.117760174 -0.05451595 -0.06090856
000210 a9 3c 15 3d 1f 03 33 bd b1 76 02 be 91 7b e9 bb
       0.036434803 -0.04370415 -0.1274059 -0.007125326
000220 8c 03 44 3c 7e bd 29 bd 22 9a 18 be ac 99 85 bc
       0.011963736 -0.04144048 -0.14902547 -0.016308628
000230 2c ad f5 3d f5 e5 3a 3e 33 76 30 3d 8d 90 5d bd
       0.119959205 0.18251784 0.043081474 -0.054092932
000240 40 23 77 3c b3 9a f8 3d 2e db 38 3e 59 64 1c 3c
       0.015084088 0.121388815 0.1805236 0.009545409
000250 b2 0c c5 3c f5 21 1f 3d 11 91 41 be 0e 5f b0 bd
       0.024053905 0.038850743 -0.18902995 -0.0861188
000260 8a 57 a8 bd 38 b7 e0 bd 47 da f0 bc e1 ea 41 3d
       -0.08219822 -0.10972446 -0.029400958 0.04734314
000270 4a f9 af 3d 00 2c 41 bd 16 84 ac 3c f7 4c e6 3d
       0.0859247 -0.047161102 0.021059077 0.11245149
000280 a6 78 0d 3e 18 9b 30 3e d8 f6 88 bd bf 30 52 bd
       0.13815555 0.17246664 -0.06687707 -0.05131602
000290 0f de 82 bd d1 ba 9d 3d 54 f4 4b bc ab cb a5 bd
       -0.063900106 0.07701648 -0.012448389 -0.08095487
0002a0 cd b2 f1 bd 78 bf be bd 81 06 6a 3c b6 e9 ac bc
       -0.11801682 -0.093138635 0.014283777 -0.021107536
0002b0 30 63 ae 3c 20 a0 ec 3b a4 f8 ee bd 89 45 b0 3c
       0.02128753 0.007221237 -0.11668518 0.021517532
0002c0 85 51 fe 3c 71 a7 1f be ed 31 c1 bb ff 78 30 3e
       0.03104473 -0.15591218 -0.005895844 0.17233656
0002d0 db d1 47 bd 2a 85 f9 bd f8 54 19 be 11 97 0f 3e
       -0.04878412 -0.12183602 -0.1497382 0.14022471
0002e0 8c 14 94 3d 74 c6 23 be 39 b7 58 be 75 3b 20 be
       0.072304815 -0.15993673 -0.21163644 -0.15647681
0002f0 ab 39 9f 3d 32 9e c9 3d 62 e6 99 bd 76 6a 0f be
       0.07774671 0.098446265 -0.07514645 -0.14005455
000300 b5 12 08 bd 31 2c a6 3c a4 63 53 3e e5 2a f8 bb
       -0.033220965 0.020284744 0.20643479 -0.007573473
000310 a9 6f 74 bd 73 a2 ae 3d 8b cc 2f 3c a3 7e b0 3d
       -0.0596768 0.085270785 0.010729919 0.08617904
000320 fe 88 07 3d 6f e3 14 3d 08 7a e7 bd 69 8b 68 3c
       0.03308963 0.03634971 -0.113025725 0.014193394
000330 f7 ce f7 3d 5b 48 93 bc 4a 51 1d be ec d1 ad bd
       0.12100022 -0.017978838 -0.1536304 -0.08487305
000340 0c 65 ef 3d f8 92 58 3c 7b 28 e1 bd b6 9e 35 be
       0.11689195 0.013218634 -0.10994049 -0.17736325
000350 0f f0 02 3d c3 08 5e 3c c8 a1 29 3d 4a 52 04 be
       0.03196722 0.013551894 0.041414052 -0.12922016
000360 c6 ba 93 bd bb b9 85 bd ce b3 a7 3d ec 65 bf 3d
       -0.072133586 -0.06529566 0.08188592 0.09345612
000370 30 ba 32 bd e7 1c 9f bd 19 8c c9 3d cb 37 f2 3c
       -0.043634593 -0.077691846 0.09841175 0.02956762
000380 46 e4 be bd 9c b7 fb 3d 06 69 c6 3d 2b 0b 46 bc
       -0.093208835 0.1229088 0.096880004 -0.012087624
000390 c5 cb 89 3d b4 83 1e 3d 35 89 d1 3d 17 52 79 bd
       0.06728319 0.03869982 0.10231248 -0.060869303
0003a0 00 be 86 bd 32 99 b0 3d ad 37 e4 3d 58 5c 38 bc
       -0.065792084 0.0862297 0.11143432 -0.011252485
0003b0 50 20 f9 bd 66 18 ba 3c 62 91 07 3c 08 4c 90 3c
       -0.12164366 0.022716712 0.008274408 0.01761438
0003c0 52 e6 20 be bb 6d bb bd fe 6e 96 bd 68 18 2d 3d
       -0.1571286 -0.09151789 -0.07345389 0.042259604
0003d0 a3 b9 88 3d b5 41 01 be 3e fb b4 bd cd 09 2b 3c
       0.066760324 -0.12622721 -0.08836983 0.010439348
0003e0 b1 bc e3 3c ef c5 b4 3c 91 d3 2e be 07 94 d6 3b
       0.027799936 0.022067038 -0.17072894 0.006548408
0003f0 8c e6 d8 3d 28 e2 0a 3e 39 78 4a bd 49 c3 21 bd
       0.10590848 0.13562834 -0.04943106 -0.03949288

conv2.bias f4 [16]
000000 ad c1 b9 3c 23 e2 8b bb 54 cb c8 bd b6 80 d7 bc
       0.02267536 -0.004268901 -0.09804407 -0.026306491
000010 13 73 85 3d fe df 57 3d 0b 69 4d 3c be 66 4e bd
       0.06516089 0.05270385 0.012537251 -0.05039095
000020 47 4e 63 bd e3 d3 73 bd 86 1e 94 3d f1 c8 d5 3a
       -0.055494573 -0.059528243 0.072323844 0.0016310496
000030 95 91 2a bc ff 8a 95 3d 6c b6 e2 3d f8 05 33 bd
       -0.010410686 0.07301902 0.110699505 -0.043706864

fc1.weight f4 [120, 400]
000000 7c 79 4e 3c 49 83 0b 3b d0 d0 e7 3c b5 89 bf 3d
       0.012602206 0.002128797 0.028297812 0.093524374
000010 b9 82 76 3a 53 55 79 3d 82 5f b2 3d 5e 6a 0a 3d
       0.00094036345 0.060872387 0.08709623 0.033792846
000020 f2 e6 be 3c 28 b5 7a bd 0b 33 51 3d f9 33 b4 3d
       0.023303483 -0.06120792 0.05107407 0.087989755
000030 7f 27 3d bd 45 e9 70 3d 59 fc 76 bd be 30 6b 3b
       -0.046180245 0.058816213 -0.06029925 0.0035887207
000040 97 1e 7f 3d a0 20 e7 bb eb c6 c2 3d cb 60 2b 3e
       0.062285032 -0.0070534497 0.09510597 0.16736142
000050 09 19 55 bd cf 24 20 3d 29 51 68 3d 94 3c 0b 3e
       -0.05202583 0.039097603 0.056718025 0.13597327
000060 27 e8 99 3d 0d e3 10 be 27 7f 3c 3c f5 cb 77 3d
       0.07514983 -0.14149113 0.011504925 0.060497243
000070 f3 89 d3 bc 16 2c 28 bc 57 24 85 bd b5 57 5d 3d
       -0.025822615 -0.010264417 -0.06501072 0.054038722
000080 c6 68 f4 3c 10 eb b4 3a 13 eb 0f 3d 05 de 1c bc
       0.029835116 0.0013802964 0.035136294 -0.009574418
000090 a3 16 8a 3c 5e a0 0c 3c 67 df af 3c d4 78 3d bb
       0.016856497 0.008583156 0.021468831 -0.002891113
0000a0 2c a4 40 3d 1e c3 8f bc 4e 4b 0d 3d 0d f6 6d 3d
       0.047031567 -0.017549094 0.034495644 0.05809598
0000b0 96 c7 4d bb eb e2 99 3b 3b 0d 7b bd c4 25 0c 3c
       -0.003139948 0.00469624 -0.061291914 0.008553926
0000c0 43 35 7c 3d af 52 fb 3c b6 15 1a 3c 85 64 01 3e
       0.06157423 0.030679075 0.00940459 0.12636001
0000d0 30 88 a7 3c 1d 54 9c 3d 05 e6 19 3d 79 db d6 3d
       0.020450681 0.07633231 0.03757288 0.1049108
0000e0 54 0f 1b 3e 63 ee 3e 3c 18 79 ef bc 51 72 69 3a
       0.15142566 0.0116535155 -0.029232547 0.0008905279
0000f0 51 35 38 3e 31 78 1c 3b 9b e5 d1 bc ee 19 a9 bd
       0.17989089 0.002387535 -0.02562218 -0.08256899
000100 e8 98 2a be 61 1c 32 3e a9 d2 24 3d 52 7d 3e bd
       -0.16659892 0.17393638 0.040239964 -0.046506234
000110 4b c1 52 bd c3 0a 3a 3c 56 dc 33 bc 43 74 46 3d
       -0.05145387 0.011355105 -0.010977825 0.04845072
000120 a9 24 a0 3c 0e cc d2 bc d9 0d af 3d 49 b3 18 bc
       0.01954873 -0.025732066 0.08547563 -0.009320089
000130 b6 57 8e ba 4f b8 bf 3b f4 26 63 3c 79 8b 44 3d
       -0.001085988 0.0058508287 0.013864268 0.047984574
000140 53 4f 33 3a 42 1f 59 bc ca f8 50 bd 51 e4 8f 3d
       0.00068401283 -0.013252081 -0.051018514 0.0702597
000150 c8 c0 27 bc eb 1b 19 bd bc 1b 88 bd 92 d7 13 be
       -0.010238834 -0.03738014 -0.06645915 -0.14437702
000160 22 84 96 bc d4 f2 ba bd b2 48 33 bd a7 ea af bd
       -0.018373553 -0.09128347 -0.0437705 -0.08589678
000170 f9 24 39 bd f2 0c 56 3b 5e 31 32 3c 92 1f c1 3b
       -0.045201275 0.0032661525 0.010876028 0.005893656
000180 c1 5a ff 3c 8e 2e f8 3c b7 b2 fc 3b d2 73 f0 3c
       0.031171205 0.030295637 0.007711734 0.029352102
000190 9d ba a4 3c 71 c0 14 3d 97 87 d0 bc f4 34 e4 3c
       0.020108515 0.03631634 -0.02545528 0.027857281
0001a0 5e 44 9e 3c 12 fa 41 bb 49 83 5a 3d 9c 6c 51 bd
       0.01931971 -0.0029598516 0.05334786 -0.05112897
0001b0 39 df a1 bc b5 44 4b 3d f3 4f 52 bc d7 e7 99 3d
       -0.019759761 0.04962607 -0.012836444 0.07514923
0001c0 5b 1a b4 bd 7b 91 35 bc 50 3d d9 3c 4d 51 4f 3c
       -0.087940894 -0.0110820485 0.026518494 0.012653661
0001d0 32 19 57 3d c3 5f da 3c a5 5f 23 bd d9 a4 2d 3d
       0.052514262 0.02665699 -0.039886136 0.04239354
0001e0 a8 4f 72 bb ae 14 0a 3d 91 7e 6a bc 68 ee 15 3b
       -0.0036973748 0.033711128 -0.014312402 0.0022877697
0001f0 05 a0 a0 bd 17 08 04 bc 07 8f 32 3e 82 71 79 3d
       -0.07843021 -0.008058569 0.17437373 0.060899265
000200 5b 94 5f bb 04 60 20 3d f1 33 1a 3d 8d 6a b8 3d
       -0.0034115526 0.039154068 0.03764719 0.09004698
000210 e1 e3 0c 3e b0 9e ae 3d 85 83 65 3b d6 0c 8d bc
       0.13758804 0.08526361 0.0035021019 -0.017218035
000220 34 b9 26 3e 39 50 27 3e 81 92 5a 3e 4a df d2 3d
       0.16281587 0.16339196 0.2134495 0.10296495
000230 b3 4f 14 bd c3 5a b1 bd 38 8f 44 bd ed d0 f6 3c
       -0.03620882 -0.086598895 -0.047988147 0.03012892
000240 09 04 90 3d 9f f1 a4 bd 4c 26 dc bd 3a 17 b2 bd
       0.0703202 -0.08053898 -0.10749492 -0.08695836
000250 69 c0 4f bc 56 1f a3 bd 06 07 5b 3c b9 b4 04 bd
       -0.0126801515 -0.07964961 0.013368374 -0.032398913
000260 ec 58 f3 3b 90 ce 4a 3c a8 f5 8e bc a3 fd 94 3c
       0.007426372 0.01237835 -0.017451122 0.01818735
000270 e6 79 b0 3c ec e7 92 bd 39 60 e8 bc aa bc 43 bc
       0.0215425 -0.07173142 -0.028366195 -0.0119468365
000280 ce 17 1a 3d f6 26 6a bd be 64 2e be f9 32 0d be
       0.03762036 -0.057166062 -0.17030618 -0.13788976
000290 31 78 09 be d2 bb cf 3c 3a 0e c6 bc b8 83 b6 3c
       -0.13424756 0.025358114 -0.024176706 0.022279605
0002a0 26 1e 54 bc b5 e6 ba 3d 47 b2 94 3d ae 08 8b 3c
       -0.012946641 0.09126035 0.07260566 0.016971912
0002b0 5b 20 cb bc fa e9 14 3d dc 48 31 3e 57 11 d9 bd
       -0.024795702 0.03635595 0.1731295 -0.105990104
0002c0 b4 11 8b bb 1c 77 0d bd bd 35 00 3d 95 13 80 3c
       -0.0042440537 -0.03453742 0.03130125 0.015634337
0002d0 13 06 8a 3b af e7 20 3d 24 11 8c ba b6 20 ff bd
       0.00421215 0.03928345 -0.0010686261 -0.12457411
0002e0 c7 27 9d bd 2f 57 8e 3d 37 d6 2e bd 18 af 0a be
       -0.076736026 0.06950223 -0.04268476 -0.13543355
0002f0 03 ff e4 bd b0 8b a6 bd 49 b2 8d bc b6 be d9 bc
       -0.11181452 -0.08132112 -0.017296927 -0.026580196
000300 14 4e ed 3c cc 45 fb 3c 8e f0 9a 3d 49 23 9c 3c
       0.028967895 0.03067293 0.075654134 0.019059794
000310 5f 09 b0 3d bc 19 95 bc d0 a8 dc 3c 43 67 31 3c
       0.085955374 -0.018200748 0.026935965 0.010827842
000320 24 5e d5 bc 1b 68 46 3b 55 55 29 bb 1e dc aa 3c
       -0.026045866 0.0030274454 -0.0025838215 0.020856913
000330 f0 08 7f 3d 1b 92 c3 3c 0e c0 ab bd a5 b1 c4 3c
       0.062264383 0.02387338 -0.08386241 0.024010489
000340 c0 5e b1 3b 74 97 cf bc 40 c1 a3 bd 03 6b 72 bd
       0.0054129064 -0.025340773 -0.07995844 -0.059184086
000350 f1 38 1f bd 78 1f 99 3b 9f ad 68 bd fc 49 a6 3c
       -0.038872663 0.004672941 -0.056806203 0.02029895
000360 0a 45 1d 3c 14 2e 5c 3c b7 10 59 bc e8 63 87 3c
       0.00959898 0.01343872 -0.013248614 0.016527131
000370 16 2b a0 3b 8c 42 c3 3c ef 55 0a 3d 8e 9b 6d 3c
       0.0048879487 0.023835443 0.03377336 0.014502419
000380 66 e0 16 3d 0b 13 f0 bc 32 65 0c bd 45 09 98 bc
       0.036835097 -0.029305955 -0.034276195 -0.018559108
000390 26 d4 9a 3d 74 77 86 3d 41 ca 56 bd 92 12 c8 bd
       0.07559995 0.065657526 -0.052438978 -0.09769167
0003a0 32 41 5a bd bf bc 11 bd 60 71 e4 bd 9b 4d fd 3b
       -0.05328483 -0.035580393 -0.11154437 0.0077301986
0003b0 90 04 9e bb f9 44 4f 3d c0 62 37 bd 5b b2 61 bd
       -0.0048223212 0.050602887 -0.04477191 -0.055101734
0003c0 9b 08 c8 3c 36 e9 a8 3d e5 26 9d 3c 17 dd 65 bc
       0.024418166 0.082476065 0.019183585 -0.014029763
0003d0 77 0d 98 3d c1 fb 32 bd fc 33 70 3d 96 ff 1b 3d
       0.07424443 -0.043697122 0.058643326 0.038085543
0003e0 b5 68 71 3c 41 e6 5d bc 50 78 87 bc 61 b5 04 3d
       0.014734437 -0.013543666 -0.016536862 0.03239954
0003f0 70 b4 bd 3b 72 f2 9e 3d bf f8 2a 3d d2 c6 98 3c
       0.005789332 0.077610865 0.04174113 0.018649492

fc1.bias f4 [120]
000000 34 b5 0e 3d 3c d6 5e 3c 7e 53 14 bb 02 e5 f8 3b
       0.034840778 0.013600882 -0.0022632773 0.0075956592
000010 c1 7a 75 3d 89 ec b2 3a 10 e3 94 3d 3b 51 6f 3d
       0.05993152 0.0013650815 0.07269871 0.058427077
000020 b8 53 34 3d 6e 69 a6 3c e9 19 37 bc 91 b4 59 3c
       0.044025153 0.020313945 -0.011175611 0.013287679
000030 89 4b 12 3d dd 4b 55 ba 48 b6 ca bb 87 36 53 bd
       0.035716567 -0.00081366097 -0.0061862804 -0.051565673
000040 f7 8f a5 3c c8 b6 19 bc ae 17 46 bd 47 5a c2 3d
       0.02021025 -0.009381957 -0.048362426 0.09489875
000050 6c 7b ec 3c e6 b3 a5 bb 25 a7 5e 3d 79 55 35 bd
       0.028867446 -0.005056846 0.05435862 -0.044270966
000060 a4 56 6a bd 90 ac 41 3c 3d e7 60 bd 03 ae aa bc
       -0.057211533 0.011820927 -0.054908026 -0.020834928
000070 72 1a 14 3d d3 39 be 3d d0 ba a4 3b a4 4b bf bc
       0.036158033 0.09288373 0.0050271526 -0.023351498
000080 4e 8a a0 bc a3 bb a7 bc 64 32 a2 bc dd be 7e 3d
       -0.019597199 -0.020475214 -0.019799419 0.06219374
000090 00 21 b5 bb c4 90 eb 3c e4 12 34 3d 69 0f cb bb
       -0.0055276155 0.028755553 0.043963328 -0.0061969054
0000a0 36 6f 45 3c 0b cb c0 ba 51 1b 85 bb e9 b3 41 3d
       0.012050441 -0.0014708949 -0.0040620943 0.047290716
0000b0 50 1d ec 3c 73 46 96 bc 40 d3 59 bd c5 19 70 bc
       0.028822571 -0.01834414 -0.05317998 -0.014654581
0000c0 00 42 b5 3c c8 c1 56 bd 90 b0 dd bc ec 80 7c bd
       0.022126198 -0.052430898 -0.02706173 -0.061646387
0000d0 4e 04 8a 3d 9b f5 b7 3c 96 2b 21 bb 3d 5e ea bc
       0.06739102 0.022455981 -0.002459263 -0.02860939
0000e0 69 b2 1c bd 2b d4 c0 3d 1b 71 90 3d 87 7b 26 bc
       -0.038256083 0.09415468 0.07052823 -0.010161287
0000f0 56 c1 cd 3c 5d 91 17 bd 68 23 05 3b 17 68 63 bd
       0.025116604 -0.037003864 0.0020315293 -0.05551919
000100 bb f0 2c 3d 51 5d 45 3d fb c9 cb 3c 89 34 8a 3c
       0.042221766 0.048184697 0.024876585 0.016870754
000110 9b d6 22 3d bd d3 15 bc a6 5c e8 bc 8f ff 10 bb
       0.039755445 -0.009144721 -0.02836449 -0.002212498
000120 ae 15 98 3b 2e 2e a0 3d c1 da 05 bd e9 a2 05 3d
       0.0046412563 0.07821308 -0.032679323 0.032626066
000130 df f0 90 3c 80 8b b1 bc 33 b7 13 3d 49 2f 35 3d
       0.017692981 -0.021672964 0.036063384 0.044234548
000140 7d 5e be 3c d1 ea 0f bd 33 02 45 bd 95 25 3e 3d
       0.023238415 -0.035136048 -0.0480978 0.04642256
000150 82 63 66 bc 11 f5 21 bc fc a9 de 3c 1d a4 9d bc
       -0.01406181 -0.009885089 0.027180664 -0.019243294
000160 2d ce c2 bc 47 10 09 bd 0c ce ad 3d 14 f8 16 3d
       -0.023779953 -0.03346279 0.08486566 0.03685768
000170 58 49 31 bd 56 8b 8c bc fd 24 2c bd da fb 69 3d
       -0.043282837 -0.017156284 -0.042027462 0.05712495
000180 4d a0 19 3d be e4 9c 3c 13 36 92 bd ea b0 64 3c
       0.03750639 0.019152042 -0.0713922 0.013958195
000190 62 f5 0d 3d be 88 2f bc c1 ec 91 3d fd 85 32 3d
       0.034657843 -0.010713754 0.07125235 0.043584812
0001a0 31 77 8a 3c ea b6 72 bb a7 66 10 3d ca 2d 84 3c
       0.016902538 -0.0037035295 0.035254147 0.016135115
0001b0 c7 1e 34 3d 94 49 04 3d e7 0e dc 3a cb 1f 6f bc
       0.043974664 0.032296732 0.0016789109 -0.014594982
0001c0 88 f5 8e 3d 9d a2 d4 bc ed a5 58 bd 7b af 57 3d
       0.06980425 -0.025956446 -0.052892614 0.052657586
0001d0 89 0c 62 bb 4d f0 52 3d 2c ab 52 bd 03 12 41 bd
       -0.0034492335 0.0514987 -0.051432773 -0.047136318

fc2.weight f4 [84, 120]
000000 73 61 05 bd 11 d6 14 3b 0a a5 0e bd f0 e0 46 bb
       -0.032563638 0.0022710601 -0.034825362 -0.0030346476
000010 53 31 22 3e e6 92 51 bd 20 fd 15 be 97 cb b9 bd
       0.15839128 -0.051165484 -0.14647341 -0.09072035
000020 89 17 c6 bd 91 5f 33 bd 77 92 28 3d c6 4b a7 bd
       -0.09672458 -0.04379231 0.041155305 -0.081687495
000030 91 2d 09 3c 1d c4 44 3d 57 f4 30 3d 8b da 16 be
       0.00837268 0.04803859 0.04320177 -0.14731805
000040 99 86 68 bc a7 15 23 3e 5b 19 48 bd 81 40 4e 3c
       -0.014192247 0.15926228 -0.048852306 0.012588621
000050 aa 13 4e bd c9 27 3b be 89 e7 13 3e d8 e9 28 3e
       -0.05031172 -0.18276896 0.14443792 0.16495454
000060 c7 5d 61 bc 9e d0 9a 3d 95 f0 b7 bd 9d dc 06 3e
       -0.013755268 0.07559322 -0.08981434 0.13170095
000070 9a cd ac bc 16 4e cd bd 92 33 86 3c 52 11 25 3e
       -0.021094132 -0.10024659 0.016382013 0.16119888
000080 56 0f 12 3d 2a 5a b1 3d 74 a0 8e bd 2e 7b 20 3c
       0.035659157 0.086597756 -0.06964198 0.009794993
000090 ee dd 4c 3d 0e 89 ee 3c 30 65 e3 bd 06 2e d2 bc
       0.050016336 0.029118087 -0.11103284 -0.025656711
0000a0 b6 58 44 3d 24 f5 c1 3d c7 1b 02 3e 14 22 8c bd
       0.047936164 0.09470585 0.12705909 -0.068424374
0000b0 2c 0a 64 bd 29 5a 48 3e f8 ee c8 bd 01 55 86 3d
       -0.055673763 0.19565643 -0.09811205 0.06559182
0000c0 92 24 27 3d 6e 45 a8 3d 48 b2 6a 3d a3 9c 19 3d
       0.04080636 0.08216368 0.05729893 0.037502896
0000d0 c4 40 d6 3d 62 b2 c0 3d ba 9f 92 3d c4 6b 7f 3c
       0.10461572 0.09409024 0.07159372 0.015589658
0000e0 d0 ce e2 3d 46 1b d4 bc 47 69 cc bd 71 01 a0 3c
       0.110746026 -0.025891911 -0.099810176 0.019531937
0000f0 96 80 2e 3c a0 6e a0 3c 17 d3 98 bd 5b 1d 94 3d
       0.010650774 0.019584 -0.07462137 0.072321616
000100 dd f6 16 3d bb 92 51 bd 18 6d 48 bd 23 f9 ff 3d
       0.03685652 -0.051165324 -0.048932165 0.12498691
000110 ac d7 1a be 86 d6 92 3d 5c c7 aa bd cb ae 4b bd
       -0.15121335 0.07169823 -0.08338806 -0.049727242
000120 42 3f d4 3b 52 90 2a 3d f6 37 93 3c ad 72 ac 3d
       0.0064772675 0.04164154 0.01797102 0.0842031
000130 6a fc ed 3d 1b 08 4c bd b0 c5 1e be 35 7a 05 3e
       0.1162041 -0.049812417 -0.155051 0.130349
000140 a9 b2 17 bd 4b 9b 8d 3d 8b 82 5d bd 4c 31 d0 3d
       -0.037035618 0.069143854 -0.054079574 0.10165653
000150 33 06 29 3e d6 9a 26 bd 26 e6 9d 3d bc b5 8b bd
       0.16506271 -0.040675007 0.07709913 -0.068217725
000160 59 3c 87 bd 23 f2 43 3d 3d 41 dc 3d 9c 64 1c 3e
       -0.06603307 0.04783834 0.10754631 0.15272754
000170 a9 14 87 3d c9 99 c5 b9 5d 2a 7e bc 78 17 d5 3d
       0.065957375 -0.00037689347 -0.01551303 0.10404867
000180 3d 84 54 3d 5f 6a a0 bc cc 3b 91 3c 15 22 00 3d
       0.051883925 -0.019581972 0.017728709 0.031282503
000190 54 ad cc 3d 41 93 34 3d 4b 95 cb bc be 56 92 3d
       0.09993997 0.044085745 -0.024851462 0.07145451
0001a0 a1 32 86 bd df 09 33 bd c4 c6 11 b9 64 32 c3 3d
       -0.065526254 -0.043710586 -0.00013902324 0.095310956
0001b0 29 df a5 bd a4 a8 0a be 33 64 e9 bb 80 3a 94 bd
       -0.08099205 -0.13540894 -0.0071225404 -0.072377205
0001c0 fe ee d3 3c 7c e9 42 bc d9 89 42 3c 61 a8 ad 3d
       0.025870796 -0.011896487 0.011873686 0.08479381
0001d0 51 94 7f bc 62 c4 bb 3d 60 3a 8a bd d3 14 7a 3c
       -0.015599326 0.091683164 -0.067494154 0.015263754
0001e0 9d a6 91 bd f9 40 d6 bd 4c 03 13 be 94 11 3b bd
       -0.07111857 -0.10461611 -0.14356726 -0.04567106
0001f0 e1 01 b2 3d 08 5e 96 bd 7c 0a 39 be fd 51 41 bd
       0.086917646 -0.07342154 -0.18070406 -0.04719733
000200 5e 5b 6b bd 3a c0 80 3d 65 30 98 bd 5e 26 f4 bc
       -0.05746018 0.06286664 -0.074311055 -0.029803451
000210 59 cd cc 3b 4e 11 ab 3d 21 fa 0a bd 02 2c 3b 3e
       0.0062500653 0.0835291 -0.033929948 0.18278506
000220 1f 07 fb bc b6 2e 10 3e d1 9c af bd 93 73 96 3d
       -0.030643044 0.14080319 -0.08574832 0.07346263
000230 fb 4f c2 bd f9 fe 7b 3d e4 22 dd 3d cf 0f 1b 3d
       -0.09487911 0.061522458 0.107976705 0.037856873
000240 43 0c 04 3c ed 82 5a 3d b6 4f a7 3c dc 48 ee 3d
       0.008059564 0.053347517 0.020423751 0.116349906
000250 80 dc 4e bd 3c 5e 4a bd fb 01 8d bd 4f f7 fb b9
       -0.050503254 -0.049406275 -0.06885143 -0.0004805871
000260 ce dd dc 3d 7b 05 a4 3d d0 8c ba 3d fe c9 32 bd
       0.107844934 0.08008858 0.09108889 -0.043649666
000270 b2 6c 79 3d 4f 4b c0 3b af 2d 27 3d 69 ab d6 3c
       0.060894676 0.0058683525 0.04081505 0.026204782
000280 62 98 dc ba 15 a6 69 bd 7b 14 97 bd 08 7a 2a 3d
       -0.0016830082 -0.057043154 -0.07376953 0.041620284
000290 cd 1d 15 3e b0 b5 30 be 34 0a ba 3d ab 47 f1 3c
       0.1456215 -0.17256808 0.09083977 0.02945312
0002a0 16 2a 55 bd 74 6c ba bc 72 1a ca 3c 27 ce 28 bc
       -0.05204209 -0.022756793 0.024670813 -0.010303057
0002b0 8e 3d 0a 3d 35 8e 5f 3d d8 3a 99 3d 02 0b 56 3d
       0.03375011 0.05457898 0.07481927 0.05225659
0002c0 ab 18 99 bd 70 a4 7f be da 94 f0 3c 48 6b ef bd
       -0.07475408 -0.24965072 0.029367853 -0.11690384
0002d0 12 c9 8d 3d 94 3e 35 ba e7 7b 0a 3d ea 40 c9 3c
       0.06923117 -0.0006913927 0.03380957 0.024567086
0002e0 f2 dc ac bd 18 2c 93 3d 32 d5 05 3d 89 9a 1a be
       -0.084405795 0.071861446 0.032674022 -0.15098013
0002f0 b0 e1 f8 bc 04 0b b1 3d b9 38 8e 3d 43 5e 27 bd
       -0.030381054 0.08644679 0.06944413 -0.04086138
000300 58 a5 bf 3d 0e dd b1 3d 8a e1 5e 3d a8 fc 37 3c
       0.09357709 0.08684741 0.05441431 0.011229672
000310 bc 42 b1 3d 47 9f d8 bc 80 f6 b7 bc 68 e1 04 3e
       0.08655307 -0.026443137 -0.022456408 0.1297661
000320 07 7a e9 3c 9a 19 0b bd 7e 05 7a 3d c3 2a 3a bb
       0.02850057 -0.033959962 0.061040394 -0.0028406836
000330 7d 2b a5 bd 18 90 0e 3e ff cf 9c bd cb fe f0 3c
       -0.08064935 0.13922155 -0.076568596 0.02941837
000340 a6 bf 06 3e 9c 24 20 bc 2c c0 2e 3c b9 8b 40 3d
       0.13159046 -0.009774353 0.0106659345 0.04700825
000350 f5 48 35 bd 50 be 80 3d 3a f6 9d bd b9 7b 48 bd
       -0.04425903 0.06286299 -0.077129796 -0.048946116
000360 e0 16 1a 3e 4c e0 2c 3e 19 fb b3 3d 68 bc 32 3d
       0.15047789 0.16882437 0.087881275 0.04363671
000370 60 0f 02 3e d0 e2 bf bc d0 c1 58 3c 5e 15 3f 3e
       0.12701178 -0.023423582 0.013229802 0.18660495
000380 e0 14 93 3b bf 6e bb 3d f7 b1 8c 3b 56 5b 7a bd
       0.0044885725 0.091519825 0.004293676 -0.06112226
000390 80 2e a1 bd e0 17 84 3d ac bb dd 3b 0c 7b 05 bc
       -0.07870197 0.06449866 0.006766757 -0.008147012
0003a0 e5 1c b1 bd bf 3d ba bc fa fd 17 3e 22 b1 15 bd
       -0.08648089 -0.022734521 0.14842978 -0.03654588
0003b0 e5 de 84 bc 8b 32 da 3d cc 46 3e bd ad 7f 8e bd
       -0.016219566 0.106541716 -0.046454236 -0.06957946
0003c0 ac df 89 3d 9a f0 be 3c ea cb 7c 3d 78 b0 56 3d
       0.06732115 0.023308087 0.061717905 0.052414387
0003d0 b2 5c 9a bc 3c 01 ac 3d 85 32 81 3d 35 e3 c3 bd
       -0.018843029 0.08398673 0.06308464 -0.09564821
0003e0 19 1c 59 bc a2 1c 3c bc 1e 77 13 3d 36 15 b0 bc
       -0.013251328 -0.011481436 0.03600227 -0.02149449
0003f0 92 36 3d bd 21 52 09 3c f2 35 33 bd 27 56 ed 3b
       -0.04619462 0.008381397 -0.043752618 0.007242936

fc2.bias f4 [84]
000000 6b 05 1b 3d ec 78 d5 3d 0d 64 b2 bd 41 a0 1f bd
       0.037846964 0.10423455 -0.087104894 -0.03897119
000010 7e 89 97 3d ba 53 d0 3d 5c 03 d1 3d a9 68 f5 3b
       0.073992714 0.101722196 0.10205719 0.007489283
000020 81 d4 c0 bc 04 bf b6 bc a4 fe 24 bc 4c ea c9 3c
       -0.02353883 -0.02230788 -0.010070477 0.024647854
000030 88 20 86 3d d2 9c c5 bd 76 bb 4c 3d 09 a3 5c bc
       0.065491736 -0.09649052 0.049983464 -0.013466605
000040 d1 47 e9 3b 01 d4 a6 3d 3b 33 06 3e fa b0 8e 3d
       0.007119157 0.08145905 0.1310548 0.06967349
000050 61 11 73 bd 69 92 a3 bd 0a a9 4f bd d1 ad 21 3b
       -0.059342746 -0.0798691 -0.050698318 0.0024670253
000060 56 bb 03 bc 30 ce 37 3d ce 02 aa 3c 22 8e 88 bd
       -0.00804027 0.04487437 0.02075329 -0.06667735
000070 d4 a1 b1 bc 97 08 9d bd b6 97 92 bd 34 e2 cc bc
       -0.021683611 -0.07667654 -0.07157843 -0.025010206
000080 45 b5 c6 bd 3a 7b d6 bb 94 07 13 3d 53 1f 4f 3d
       -0.09702543 -0.0065454515 0.0358959 0.050566982
000090 ba 36 01 3e 95 1f 1f 3c 7c 6c f8 3d b2 86 85 bd
       0.12618533 0.00971212 0.12130067 -0.06519832
0000a0 e8 4a 80 bd f1 3b 20 3d 51 36 b7 3d e4 8b 89 3d
       -0.06264287 0.039119665 0.08945907 0.06716135
0000b0 79 4b b4 bd 14 96 63 bc 18 eb c2 3d 2c 1a d8 3d
       -0.08803458 -0.013890762 0.09517497 0.10551867
0000c0 31 d6 97 3d f7 ee b0 bd 1e ee a9 bc 05 51 29 3d
       0.07413901 -0.08639329 -0.020743426 0.041337032
0000d0 d3 7e ff 3d 99 df 2a bd a5 14 cf bc 82 ff d8 bd
       0.12475362 -0.041717146 -0.025278399 -0.10595609
0000e0 09 ad 8e bd f6 7e 55 3c c5 75 aa 3d cb 26 8d bd
       -0.069665976 0.013030758 0.08323244 -0.06892165
0000f0 57 bd 06 3e e3 6d 80 bd c9 f1 95 3c 8a 2c 4d 3d
       0.13158165 -0.06270959 0.018303769 0.050091304
000100 75 28 73 bd 34 68 a3 bb 06 dd 9a 3d d2 e8 0e 3b
       -0.059364755 -0.004986787 0.07561688 0.0021806252
000110 1f 5c e9 bc ab b8 2b bc cf 72 fa 3d 06 04 c9 bd
       -0.02848631 -0.01048104 0.12228929 -0.098152205
000120 0b 8a a1 bd a3 c8 99 bd 12 01 e8 3c 3c 4a 25 3d
       -0.07887658 -0.075089715 0.028320823 0.040354
000130 2a ea c4 3c 99 e9 15 3e e7 c9 46 3d 0f b0 ab 3d
       0.02403744 0.14639892 0.048532393 0.0838319
000140 3e 3c aa 3d 07 38 04 bc 42 77 31 bc 91 03 ba 3d
       0.083122715 -0.008069999 -0.010831656 0.090827115

fc3.weight f4 [10, 84]
000000 ed 95 c7 3d 7b f6 50 bd 79 d9 ad bd b2 75 44 3d
       0.09745393 -0.051016312 -0.08488745 0.047963805
000010 15 38 99 3d cd 3a 9a 3d ad b1 d3 3b a6 f0 10 3e
       0.074814 0.075307466 0.0064603896 0.141543
000020 76 2f b3 3d 1e 26 9e bd 56 07 d4 3d e3 63 54 3c
       0.08749287 -0.07722114 0.10352962 0.012963268
000030 54 ab 0b 3d fe e4 b1 3a fc d9 a9 bd ee bb 07 be
       0.034098938 0.0013572273 -0.0829353 -0.13255283
000040 de 92 c7 3c 90 58 d4 bd 72 b2 c7 3d 78 d7 b4 bd
       0.024362024 -0.103684545 0.097508326 -0.0883016
000050 7a 1b 46 bd bc 23 d5 bb 71 34 8d 3d 14 ef 5f bd
       -0.048366047 -0.006504504 0.06894768 -0.054671362
000060 ae 2c 14 be bf 13 06 3e 16 71 e4 3d 44 87 b3 3d
       -0.14470169 0.1309347 0.11154382 0.08766034
000070 f9 c0 88 bd fd 0d d8 3d 55 55 5b 3d 59 39 62 be
       -0.066774316 0.10549543 0.053548176 -0.22092189
000080 f4 b6 b4 3d ac ec 99 bd 9b 78 2f be fa 29 3f bd
       0.08823958 -0.07515845 -0.17135851 -0.04667089
000090 08 e9 8e 3c 8a b3 cd bc 9e b1 2a 3e d2 2c 56 be
       0.017445102 -0.025110025 0.16669318 -0.20915535
0000a0 68 22 9a bd b1 e9 e3 3d 6e 7a 85 3d cf 2d 52 bd
       -0.07526094 0.111285575 0.06517492 -0.051313218
0000b0 96 cd 50 3d d8 28 69 bd 4b e0 c4 bd 54 a4 64 3d
       0.050977312 -0.056923717 -0.09613093 0.055820778
0000c0 a3 24 98 3c e3 b0 c9 3d 18 f4 4e 3d b8 fd da bd
       0.018572157 0.098481916 0.050525755 -0.10692924
0000d0 0e c4 82 3d ef 91 52 3e 7a a7 81 3d 9a 97 b7 3d
       0.06385051 0.20563482 0.06330772 0.089644626
0000e0 59 08 c2 3a 5b cd c1 bd fa 9c 88 bd e0 af 18 3e
       0.0014803513 -0.094629966 -0.06670566 0.14910841
0000f0 3a 07 d4 3d 03 f8 9c bc c7 e5 a3 bd 1f 0b 3a be
       0.10352941 -0.01916123 -0.08002811 -0.18168305
000100 33 ce b3 bd 85 6b a2 3c 0d f1 da bd 4e 85 26 3e
       -0.08779564 0.01982666 -0.10690508 0.16261789
000110 d8 15 dd 3d 78 f8 b5 bd 65 9b 3b be 0a 06 5f bd
       0.10795182 -0.08885282 -0.18320997 -0.05444912
000120 1c 3a 8e 3d 91 c1 2a bd 64 ad c8 3d 72 ff 2a 3d
       0.06944677 -0.041688506 0.09798697 0.041747518
000130 78 3e c9 3d 35 6b 7a 3d 2b e4 66 bd 3b 06 3f 3c
       0.09826368 0.061137397 -0.05636994 0.0116592
000140 ac b1 fd bd 39 59 02 3b 68 41 a7 bd f4 16 c2 3c
       -0.12387404 0.0019889607 -0.08166772 0.023692586
000150 f3 0f 38 be 52 70 14 3d 0c ae 67 bd 8c 69 d8 bc
       -0.17974834 0.03623993 -0.05656247 -0.026417516
000160 fe 0d 96 3d c9 03 1f be c4 68 bc 3d a4 70 82 3d
       0.073268875 -0.15528788 0.0919967 0.06369141
000170 d5 2a 29 bd da 0b 70 3c 3c e8 15 3d 85 9f ab 3c
       -0.041300613 0.014651263 0.03659843 0.020950088
000180 90 b0 47 3d 55 77 70 3b 22 f5 14 3e 97 34 08 3e
       0.048752367 0.0036692221 0.14546636 0.13301311
000190 11 77 23 be 89 90 0e 3e a0 d5 25 be 9b b1 08 3e
       -0.15963389 0.13922323 -0.16194773 0.13349001
0001a0 96 10 d7 3d f2 84 37 bd 5b 4b cf 3d 3c 58 c8 bd
       0.105012104 -0.04480452 0.10121795 -0.09782454
0001b0 16 83 b7 3d db f4 6f bc c9 0a 9b bd fe 4a 81 bc
       0.089605495 -0.01464578 -0.075704165 -0.01578283
0001c0 55 85 35 be 0e 96 2f be 8b 48 da 3d 93 22 b8 3c
       -0.17726643 -0.17147085 0.10658368 0.022477424
0001d0 c2 63 9b 3d 66 59 c0 3d 1f f7 2b 3c 0c b9 3a bb
       0.07587387 0.093920514 0.01049593 -0.0028491644
0001e0 8d 83 20 3e 57 a5 8b bc 0d 4c 93 3c b8 8f 5a 3c
       0.15675183 -0.017046614 0.0179806 0.013339929
0001f0 ec 39 83 bd e2 f5 1f be 37 b7 3d be 8b 39 04 be
       -0.06407532 -0.1562114 -0.18526922 -0.12912576
000200 3e 2e a7 3d 4c c9 d1 3d 1a 53 f6 3d 9c b8 0a be
       0.08163117 0.102434725 0.12027569 -0.13546985
000210 f1 94 16 be a4 46 4f 3d 9a a2 a2 3d 12 e3 8e 3c
       -0.14705254 0.050604478 0.0794117 0.01744226
000220 0c 7b 0b 3e c9 8c c1 3d 5f 09 81 3c 73 14 a1 bd
       0.13621157 0.09450681 0.015751539 -0.078652285
000230 d0 f8 88 bd 23 7e ae 3d a1 0e 24 be 37 26 26 3e
       -0.06688082 0.085201524 -0.16021205 0.16225515
000240 3c b9 5c 3d 12 d9 c2 3d 5d d4 04 bc cb 00 de bc
       0.05388759 0.09514059 -0.008107272 -0.027099987
000250 c5 00 44 bc 04 62 84 3c a8 b8 a3 3d 37 4d ca 3c
       -0.011963074 0.016160019 0.07994205 0.024695022
000260 37 13 e8 3c 85 21 e1 3d 2b 40 d5 3d 82 d8 63 3c
       0.028329475 0.109927215 0.1041263 0.0139066
000270 80 3b 81 bd da 08 57 bd c0 69 bb 3d 6d 66 f1 3d
       -0.06310177 -0.052498676 0.091510296 0.11787114
000280 33 96 0d 3d 51 57 f3 3d 66 44 19 3e ec e0 34 be
       0.03456707 0.11881889 0.14967498 -0.17663926
000290 ac 27 8a 3d f7 72 1b be c5 6b a6 3b 33 75 00 be
       0.06745848 -0.15180574 0.005078765 -0.12544708
0002a0 e6 6e d7 3c f6 c9 38 3e 36 74 34 3d 42 f8 26 3c
       0.026297998 0.18045792 0.04405614 0.010191025
0002b0 00 ac bf bd 02 3e 9f bd 19 90 27 bd 62 3c cd 3c
       -0.09358978 -0.07775499 -0.040908907 0.025053207
0002c0 bc 42 11 3d 5d c0 3e bc 04 8c 6a 3c e3 d2 18 be
       0.035464033 -0.011642543 0.014315609 -0.14924197
0002d0 93 10 93 bd 3d ec 05 3b d2 e7 11 3e ab b0 15 be
       -0.07180896 0.0020434998 0.14248589 -0.14618175
0002e0 56 9a c3 3d f4 08 b8 3a 95 ae 19 bd 75 bf ed bd
       0.095509216 0.0014040754 -0.03752001 -0.11608783
0002f0 79 e0 0d 3d 24 21 13 be 3a 7f e0 3d a1 9d a4 bd
       0.034637902 -0.14368111 0.109617665 -0.08037878
000300 97 9b 91 bd a8 dc 33 3e 53 b9 41 bc 3f 56 93 3d
       -0.071097545 0.17564642 -0.01182397 0.071941845
000310 1b 6d f4 3d 27 f0 db 3d 04 ff ad 3d da 97 5f bd
       0.11934873 0.10739165 0.08495906 -0.054588176
000320 d0 f1 62 3d 1c 1c 78 3d 31 cc 10 3d 05 ff 9a bc
       0.05540639 0.060573682 0.035350982 -0.01892043
000330 32 27 a9 3d 4a 4d aa 3d 8c ec 3b 3c aa d3 1e 3e
       0.08259429 0.08315523 0.011469971 0.15510431
000340 de 33 a9 3d fd b2 b2 3d 9d c3 fe 3d 49 02 c3 bd
       0.08261846 0.087255456 0.12439654 -0.0952192
000350 2e b4 a3 bd ec c7 fa 3c 32 31 3f 3e d5 fe 95 bd
       -0.07993351 0.030612908 0.1867111 -0.07323996
000360 35 67 35 bd 20 00 a0 bd 35 2e d8 3d 0b 42 df bc
       -0.04428788 -0.07812524 0.10555688 -0.027253171
000370 0a 4b e1 bd 14 2f e7 bd e4 5d ba bd 4a 20 5e bd
       -0.11000641 -0.11288276 -0.090999395 -0.054230012
000380 02 e5 c8 3b b6 a0 32 3d ac 5d 04 3e e3 74 6e be
       0.0061308155 0.043610297 0.12926358 -0.23286776
000390 31 b3 e2 bd a8 c7 c8 bc c3 76 d4 3d ae c0 f4 bd
       -0.11069334 -0.024509266 0.103742145 -0.11950813
0003a0 58 71 c6 bc 51 b4 ff 3c c2 af 12 3d 17 9d de bd
       -0.024223968 0.031213911 0.035812147 -0.10869806
0003b0 7d 5e 37 bd 83 03 a7 3d b2 04 0d be 21 02 a5 bd
       -0.044767845 0.08154967 -0.13771322 -0.08057047
0003c0 90 34 db 3d d5 33 be bc b8 03 5c bd 17 ac 4b 3d
       0.10703385 -0.023218075 -0.053714484 0.049724665
0003d0 19 d5 2f 3e a1 d6 e8 bd e7 35 32 3d 3b dd 7d bd
       0.17171134 -0.11369062 0.043508437 -0.06197856
0003e0 1c a3 e0 3d d8 6f 55 bd ea 1a ca bd e6 47 0c be
       0.10968611 -0.052108616 -0.09868415 -0.13699302
0003f0 6e 67 fb 3d 1f 20 9f 3d 91 31 4e 3d ec d8 3b be
       0.12275587 0.077697985 0.05034024 -0.18344468

fc3.bias f4 [10]
000000 76 79 9f bd 75 c0 b0 3d 5c b4 9d 3c 4a 2c 39 3d
       -0.07786839 0.08630458 0.019251041 0.045208253
000010 0d 28 81 bd 5c d2 ee bd f3 74 02 bd 5f 2e 8e 3d
       -0.06306467 -0.116612166 -0.031849813 0.06942438
000020 01 e8 6c 3d 2d d7 92 bd
       0.057838444 -0.07169948
